GAN/generator.pt (torch, 717057 bytes, 12 tensors)

model.0.weight f4 [130, 130]
0	0xbdaef841	-0.085434444
1	0x3d985271	0.074375995
2	0xbd91a8ba	-0.0711226
3	0x3cd4bf70	0.02597019
4	0xbd9400a2	-0.07226683
5	0xbcc9ed5d	-0.024649316
6	0xbd94bfee	-0.0726317
7	0x3cd36512	0.02580503
8	0xbd535292	-0.051592417
9	0xbd16b1a4	-0.036790505
10	0xbd9d8af8	-0.07692522
11	0xbbbbe4a4	-0.005734043
12	0x3c625bb4	0.013815809
13	0xbd07f2dc	-0.033190593
14	0x3cd5d59d	0.026102835
15	0x3d1697eb	0.036765974
16	0x3d2131bf	0.039354082
17	0xbc9657e8	-0.018352464
18	0xbd5b15b1	-0.053487483
19	0xbda68183	-0.08130171
20	0xbd349169	-0.044083986
21	0xbc39b9a6	-0.011335766
22	0x3d3a8812	0.045539923
23	0x3d621523	0.05519594
24	0xbbe7806d	-0.00706487
25	0xbd9df6cc	-0.077130884
26	0x3d094d99	0.03352127
27	0xbdb00732	-0.085951224
28	0xbd8526fd	-0.06501577
29	0xbc72b761	-0.014814229
30	0xbc119e83	-0.00888789
31	0xbd1d67be	-0.038429014
32	0xbcf62d41	-0.030050876
33	0xbbd60e8a	-0.006532495
34	0xbda09cef	-0.07842433
35	0x3d1fd75f	0.039023753
36	0xbb09f64e	-0.002105135
37	0x3d46e6ba	0.04855988
38	0x3dba0174	0.090823084
39	0x3d35c572	0.04437775
40	0xbdadc831	-0.08485449
41	0x3d10baf6	0.03533455
42	0xbd727b95	-0.05919989
43	0xbd3d24f4	-0.04617782
44	0xbd373271	-0.04472584
45	0xbda2f668	-0.079571545
46	0x3d4a2105	0.049347896
47	0xbbcbebdc	-0.006223185
48	0x3d237dd0	0.039914906
49	0xbc7c4d92	-0.015399354
50	0x3d894f32	0.067045584
51	0x3c831f04	0.016006
52	0x3d2f9329	0.042864952
53	0x3c911380	0.017709494
54	0xbd97e2ad	-0.07416282
55	0x3d9da5c6	0.076976344
56	0xbd397084	-0.04527332
57	0x3acceb82	0.0015634152
58	0xbd9bad61	-0.07601429
59	0x3d8b2beb	0.06795486
60	0xbd9373fe	-0.07199858
61	0x3d103678	0.035208195
62	0x3cc1d312	0.023660216
63	0xbd40b934	-0.047051623
64	0x3c1b5d8e	0.009482754
65	0xbd5d9a34	-0.054102138
66	0xbda4f740	-0.08054972
67	0xbc0b9f0c	-0.008521806
68	0x3d85cfe6	0.06533794
69	0xbbf1e84a	-0.0073824273
70	0xbce14677	-0.02749942
71	0xbd1421b2	-0.036164947
72	0xbbf80273	-0.0075686513
73	0x3da1f84f	0.07908689
74	0xbd392d3e	-0.045209162
75	0x3cba55ef	0.022746054
76	0x3d113f25	0.03546061
77	0x3da0df0f	0.07855045
78	0x3db75597	0.08951872
79	0xbd646de4	-0.055768862
80	0x3c90f9db	0.017697265
81	0xbc6c3a96	-0.014418265
82	0xbdb2c764	-0.08729437
83	0x3cadf3f1	0.021234484
84	0xbd77f3d2	-0.06053526
85	0xbcaff0cf	-0.021477131
86	0xbb825716	-0.0039776666
87	0x3d87fc82	0.06639959
88	0xbd156a0c	-0.036478087
89	0x3db6977b	0.08915611
90	0x3d3b86a5	0.045782704
91	0xbd9f15a3	-0.07767799
92	0x3d904773	0.07044878
93	0x3d6a5e4f	0.057218846
94	0xbd0e7875	-0.034782846
95	0x3cfe5753	0.031047499
96	0x3d163388	0.036670238
97	0xbcb23cac	-0.021757446
98	0x3d4977e5	0.049186606
99	0xbd4906e7	-0.04907885
100	0x3d9cb291	0.07651246
101	0x3d8db0ce	0.069184884
102	0xbd1a1bf7	-0.037624326
103	0xbc966ca8	-0.018362358
104	0xbd7ad856	-0.06124147
105	0x398edbc0	0.00027248077
106	0x3d28db1c	0.041224584
107	0xbbcd3f9b	-0.006263686
108	0xbc963f39	-0.018340694
109	0x3b57dab3	0.0032936751
110	0x3d7cc6d5	0.06171306
111	0xbd08c10c	-0.03338723
112	0x3ca8bbc1	0.02059734
113	0x3d45d665	0.048300166
114	0x3ca109f7	0.019658072
115	0xbd91d706	-0.071210906
116	0x3ba9ed8d	0.005185789
117	0x3d81b47b	0.06333252
118	0x3ce75e48	0.028243199
119	0xbcfb2097	-0.030655188
120	0xbca7c075	-0.020477513
121	0xbd261ad3	-0.040552925
122	0xbdaade85	-0.083432235
123	0xbbe48cfb	-0.006974814
124	0x3d332bfe	0.043743126
125	0xbceab84d	-0.028652335
126	0x3d8efeb5	0.06982175
127	0xbd34a9d4	-0.044107273
128	0x3cc0b67a	0.023524512
129	0xbb7a0a07	-0.003815295
130	0xbd35548a	-0.044270076
131	0x3bc2c709	0.005944137
132	0xbd52cef2	-0.05146689
133	0xbca3184a	-0.019909043
134	0x3d4113a9	0.04713789
135	0xbd94395c	-0.07237503
136	0xbd2e43cf	-0.042545136
137	0xbc611f11	-0.013740317
138	0xbdb9065b	-0.09034415
139	0xbc81e819	-0.015857743
140	0xbce7579f	-0.028240023
141	0x3d5443b9	0.051822398
142	0xbd34edb7	-0.044172015
143	0x3c15af16	0.009135982
144	0x3d851b0b	0.06499299
145	0x3d22e3fe	0.03976821
146	0xbc45b0b4	-0.012066055
147	0xbd203997	-0.039117422
148	0x3ce470fd	0.027885908
149	0xbc222ec4	-0.009898845
150	0xbaeb5fe5	-0.0017957656
151	0xbdbb17c7	-0.091353945
152	0x3d487caa	0.048947014
153	0x3d887e04	0.066646606
154	0x3d2abfc8	0.041686803
155	0x3d8ba163	0.068178914
156	0xbd2b858e	-0.041875415
157	0xbc3cc55c	-0.0115216635
158	0x3d31efb8	0.043441504
159	0x3d15ca23	0.036569726
160	0xbcdc2e8b	-0.026877662
161	0xbcbc464e	-0.022982743
162	0xbd934154	-0.07190195
163	0x3d5f2e18	0.054487318
164	0xbd3fdefd	-0.046843518
165	0xbbd5aaca	-0.006520604
166	0x392ca543	0.00016464763
167	0xbd1210ab	-0.035660427
168	0xbd707f5e	-0.058715217
169	0x3d0e173a	0.03469012
170	0xbb4ce7a7	-0.0031266005
171	0xbd195e76	-0.0374436
172	0xbd25fd16	-0.040524565
173	0x3d30e893	0.04319055
174	0x3d90a055	0.07061831
175	0xbc20432c	-0.00978164
176	0xbb6babed	-0.003596063
177	0xbd85c3f4	-0.06531516
178	0xbcfb2daf	-0.030661432
179	0xbd25b31e	-0.040454023
180	0x3c4e49f9	0.012590879
181	0xbc98e03b	-0.018661609
182	0x3d955997	0.072924785
183	0x3b72ee42	0.0037068282
184	0x3d6fa12d	0.05850332
185	0x3d8c9070	0.06863487
186	0x3d984f92	0.07437052
187	0x3d083c00	0.033260345
188	0xbcb105d7	-0.02160923
189	0xbd6138b5	-0.05498572
190	0xbdb04cee	-0.08608423
191	0xbd991b9a	-0.07475968
192	0xbd0224fd	-0.031773556
193	0x3d27262d	0.04080789
194	0xbd577192	-0.052598543
195	0xbd373b4f	-0.044734295
196	0x3c84e090	0.016220361
197	0x3dacc8d1	0.0843674
198	0xbdaf5e35	-0.085628904
199	0xbbeeff8d	-0.0072936476
200	0xbd4c694c	-0.049905106
201	0x3cd188c1	0.025577905
202	0xbcbcc10b	-0.023041269
203	0x3d753ced	0.059872556
204	0xbc9882f8	-0.018617138
205	0xbd166c55	-0.036724407
206	0x3d9cc3d4	0.07654539
207	0x3cec36bd	0.028834695
208	0xbcc954f5	-0.024576643
209	0xbca1c6b7	-0.019748075
210	0x3d570189	0.0524917
211	0x3bc98341	0.00614968
212	0x3d1c209e	0.038117044
213	0x3d9b4c94	0.075829655
214	0xbbde5c43	-0.006785901
215	0xbdc0c32d	-0.09412227
216	0x3d02fa74	0.031977132
217	0xbd8fa696	-0.070141956
218	0x3da30cc1	0.07961417
219	0xbd9ba9da	-0.07600756
220	0x3c0ea4ec	0.008706313
221	0xbdae08b2	-0.08497752
222	0xbca62e62	-0.020285789
223	0xbc78fbe9	-0.015196779
224	0xbd8099ea	-0.06279357
225	0x3d8714d6	0.06595771
226	0x3c966d0f	0.01836255
227	0xbd1064fe	-0.035252564
228	0xbd50c8bd	-0.05097269
229	0x3d90aec1	0.07064582
230	0x3bedce58	0.007257264
231	0x3dae4f83	0.085112594
232	0xbd19e14c	-0.037568375
233	0x3d921159	0.07132215
234	0xbd99a305	-0.07501797
235	0x3bb9579e	0.0056561967
236	0xbdae41db	-0.08508655
237	0x3d1fc5f7	0.039007153
238	0xbda43c27	-0.08019286
239	0x3bf47e8b	0.007461374
240	0x3d87ee0e	0.06637202
241	0xbd132f3c	-0.035933718
242	0x3d9c389b	0.07627984
243	0xbd97a59f	-0.074046366
244	0xbda93aad	-0.08263145
245	0x3d75bb77	0.059993234
246	0xbda9ffa0	-0.0830071
247	0x3da88502	0.08228494
248	0xbc10ffbd	-0.008850035
249	0x3d9a89dd	0.075458266
250	0x3d867d8e	0.065669164
251	0xbd35a078	-0.044342488
252	0xbd007ed5	-0.031370956
253	0x3cb5bce2	0.022184793
254	0xbd88daeb	-0.0668238
255	0xbb81b76b	-0.0039586327

model.0.bias f4 [130]
0	0xbd46c513	-0.04852779
1	0x3ce3b693	0.02779702
2	0x3d9f1457	0.077675514
3	0x3d0de0a6	0.03463807
4	0xbc119aac	-0.008886974
5	0x3da69ebd	0.08135746
6	0x3db2514d	0.08706913
7	0x3da7cc8e	0.081933126
8	0x3c07962e	0.008275552
9	0xbcb46dfe	-0.022025105
10	0x3c6ad4b0	0.014332935
11	0xbd529df0	-0.051420152
12	0x3d79c97f	0.060983177
13	0x3d4b95c0	0.04970336
14	0xbd3db056	-0.046310745
15	0x3bf1fb9d	0.007384731
16	0x3d4b66bc	0.049658522
17	0x3c06b397	0.0082215285
18	0xbceffbc9	-0.029294865
19	0x3cbd8fd2	0.023139868
20	0x3da3b104	0.079927474
21	0x3bf73642	0.00754431
22	0x3cc870bf	0.024467824
23	0xbd5893b9	-0.052875254
24	0xbd3c0957	-0.045907345
25	0xbc734904	-0.014848951
26	0x3d8937d2	0.067001
27	0xbd43543d	-0.047687758
28	0x3d96a745	0.07356123
29	0x3c9f4c6c	0.01944562
30	0x3cbd7910	0.023129016
31	0x3c98b87c	0.018642657
32	0x3d31b5d0	0.04338628
33	0xbd2d0205	-0.042238254
34	0x3c5f7679	0.013639086
35	0xbcf5de8c	-0.030013345
36	0x3d23ca5a	0.0399879
37	0x3c6559ab	0.013998429
38	0x3d86e4ea	0.06586631
39	0xbd86ce3d	-0.065823056
40	0xbd93823d	-0.07202575
41	0xbcf5de6c	-0.030013286
42	0xbd73311d	-0.05937301
43	0x3c585e95	0.013206144
44	0x3c94433b	0.018098464
45	0x3d5af847	0.053459432
46	0x3cf69aea	0.030103166
47	0x3d4f574b	0.05062036
48	0x3d6fb096	0.058518015
49	0x3c518508	0.012788065
50	0x3b9dd26b	0.0048163435
51	0x3c641ea6	0.013923323
52	0xbcf2d8e8	-0.029644445
53	0xbd39afe9	-0.045333777
54	0x3c58001e	0.013183622
55	0xbd80795c	-0.062731475
56	0xbd8a4d44	-0.067530185
57	0x3d5aceb8	0.0534198
58	0x3d18d072	0.037308164
59	0xbbb722ed	-0.0055888803
60	0x3ca934a3	0.020654982
61	0x3d9c1a4c	0.07622203
62	0x3d300568	0.042973906
63	0x3c10b57d	0.008832333
64	0xbc23509c	-0.009967949
65	0xbb8ce6f1	-0.0042999913
66	0xbda3f4b0	-0.08005655
67	0xbc98b05f	-0.018638788
68	0xbd438516	-0.047734343
69	0x3d6101d8	0.0549334
70	0x3d26572c	0.040610477
71	0x3d70b6c9	0.058768068
72	0x39e0c795	0.0004287331
73	0xbd9d3a32	-0.076771155
74	0xbc894dfb	-0.016760817
75	0xbd409505	-0.047017116
76	0x3ad12d8c	0.0015959009
77	0x3d88cf21	0.06680132
78	0xbd374b94	-0.04474981
79	0x3d745a00	0.059656143
80	0x3d80a150	0.06280768
81	0x3d962027	0.07330351
82	0xbba0d68f	-0.00490839
83	0x3d9b3501	0.07578469
84	0x3db35a81	0.087574966
85	0x3d2c2e3c	0.04203628
86	0xbd25a189	-0.040437255
87	0x3d41d88a	0.04732565
88	0xbd9ea390	-0.07746041
89	0x3d519150	0.05116397
90	0x3d345eb4	0.04403563
91	0x3da5bd61	0.08092762
92	0x3d7d4a85	0.061838645
93	0xbc5d189e	-0.013494639
94	0xbda01d9a	-0.07818146
95	0x3d95b120	0.073091745
96	0x3cf2cd1d	0.029638821
97	0xbb204a7d	-0.002445846
98	0xbbcbd313	-0.0062202304
99	0x3d99b0df	0.075044386
100	0xbd5bcad5	-0.053660233
101	0x3db26b8f	0.087119214
102	0x3cb741a8	0.022370175
103	0xbd988b24	-0.07448414
104	0xbd9f6009	-0.07781989
105	0xbd6739e1	-0.056451682
106	0x3d27f319	0.04100332
107	0xbd93a737	-0.07209628
108	0x3db4c1df	0.088260405
109	0x3d084d7f	0.03327703
110	0x3b94044c	0.004517114
111	0x3d72ab0f	0.059245165
112	0xbc636069	-0.013877966
113	0xbd2dd91d	-0.042443383
114	0x3d4c7144	0.049912706
115	0xbd83c8d8	-0.06434792
116	0xbd2b011a	-0.041749097
117	0xbd026bd7	-0.031841125
118	0x3abbf7a2	0.0014340768
119	0xbd519bc8	-0.051173955
120	0x3b6e14d3	0.003632833
121	0xbc96afa8	-0.018394306
122	0xbd0cfa78	-0.034418553
123	0xbc1706ee	-0.009217961
124	0x3d666c8d	0.056255866
125	0x3db52ad1	0.08846057
126	0xbda72621	-0.081615694
127	0x3c1612fa	0.009159798
128	0xbd940150	-0.07226813
129	0xbcbe3727	-0.023219658

model.1.weight f4 [64, 130]
0	0xbda10d75	-0.07863895
1	0x3d08c9ab	0.03339545
2	0x3c8f4ce9	0.017492728
3	0x3d5132ed	0.051073957
4	0xbca62edb	-0.020286014
5	0x3da391d1	0.07986797
6	0xbdbee376	-0.093207285
7	0x3d644469	0.055729304
8	0x3d46184d	0.04836302
9	0xbd6008c5	-0.054695863
10	0xbd4b19c8	-0.049585134
11	0xbc578b5b	-0.0131557835
12	0xba3d8531	-0.0007229625
13	0xbd396b63	-0.045268428
14	0xbd884fdb	-0.06655856
15	0x3d9557e0	0.072921515
16	0xbadcd301	-0.0016847552
17	0xbd462020	-0.04837048
18	0x3d321c62	0.0434841
19	0xbd996e30	-0.0749172
20	0x3cc2a643	0.02376092
21	0x3ce8fbb9	0.028440343
22	0x3d297d64	0.041379347
23	0x3d81e678	0.063427866
24	0x3d9249d4	0.07142988
25	0x3d90f13b	0.07077261
26	0xbd877f16	-0.066160366
27	0x3d48ce96	0.04902514
28	0x3d9ea961	0.0774715
29	0x3d3497ee	0.044090204
30	0xbd191be5	-0.037380118
31	0x3d2d8784	0.042365566
32	0xbb1ce602	-0.0023940806
33	0xbc43cdd1	-0.011950926
34	0xbce7b2f5	-0.028283576
35	0x3d5dcbfd	0.054149617
36	0x3d634887	0.05548909
37	0xbdabd949	-0.08391053
38	0xbd8742bc	-0.066045254
39	0xbd84703c	-0.064667195
40	0xbbda5311	-0.0066627343
41	0x3d882b7a	0.066489175
42	0x3d5c8a83	0.053843033
43	0x3cd216d0	0.025645643
44	0x3c495e56	0.012290558
45	0x3c6fbc66	0.01463232
46	0xbd81f024	-0.06344631
47	0xbd1213d7	-0.035663452
48	0xbd0927c3	-0.033485185
49	0x3c371656	0.011174759
50	0xbc4c6401	-0.012475015
51	0x3ceca528	0.028887346
52	0x3c0ae058	0.008476339
53	0xbc387e87	-0.011260635
54	0x3d9e3a68	0.07725984
55	0x3d366e0e	0.04453855
56	0xbd8e645d	-0.069527365
57	0xbd9d4e64	-0.076809675
58	0x3da6dc51	0.08147491
59	0xbcd4afc6	-0.025962722
60	0x3c90827a	0.017640341
61	0x3bc057c9	0.00586984
62	0x3c9aa402	0.018877033
63	0x3a51025d	0.00079730694
64	0x3db6cf3d	0.08926246
65	0x3d96e60f	0.07368099
66	0xbd6c0dc7	-0.057630327
67	0xbd8aef09	-0.067838736
68	0x3d087f59	0.033324573
69	0x3d941d31	0.0723213
70	0x3cde60f0	0.027145833
71	0xbc26e79b	-0.010187055
72	0xbd303df6	-0.04302784
73	0xbd955d14	-0.07293144
74	0xbc6fa1a0	-0.014625937
75	0xbdaa3768	-0.08311349
76	0xbb170a5c	-0.0023046946
77	0x3d50d131	0.05098075
78	0xbd9ba887	-0.076005034
79	0x3d7b8fcc	0.061416432
80	0x3da92527	0.08259039
81	0x3d32fe0d	0.043699313
82	0x3d61410a	0.054993667
83	0xbd856e33	-0.065151595
84	0xbca4b8ce	-0.020107653
85	0x3d9d6263	0.076847814
86	0xbab8db3b	-0.0014103422
87	0x3d108114	0.03527935
88	0xbd75d99e	-0.06002199
89	0x3da355e1	0.079753645
90	0x3b2c5627	0.0026296468
91	0x3da50d18	0.08059138
92	0x3d49e808	0.049293548
93	0xbd0905a3	-0.03345264
94	0x3d0f4b84	0.034984127
95	0xbd197b23	-0.037470948
96	0x3cae5de5	0.021285007
97	0x3c655647	0.013997621
98	0xbd9d1e6c	-0.07671818
99	0x3d330c14	0.04371269
100	0x3d40375d	0.0469278
101	0xbc087d20	-0.008330613
102	0xbcd5e841	-0.026111724
103	0xbc937ab3	-0.018002843
104	0xbd82eedb	-0.06393214
105	0x3d9d68a0	0.07685971
106	0xbb4ea487	-0.0031531171
107	0xbd1ad4f9	-0.037800763
108	0xbd4fa2fe	-0.05069255
109	0xbb243700	-0.0025057197
110	0xbd98ab09	-0.07454497
111	0xbd13bf92	-0.036071368
112	0x3d7dd93d	0.061974753
113	0x3d1e3628	0.038625866
114	0x3dae2609	0.085033484
115	0x3da3a7ef	0.07991015
116	0x3cb3cefb	0.021949282
117	0x3da46cd0	0.08028567
118	0x3d9cc85f	0.07655405
119	0x3d887978	0.06663793
120	0x3b591093	0.0033121451
121	0xbd82a52b	-0.063791595
122	0x3d5a6027	0.053314354
123	0x3c9da743	0.019244796
124	0x3d281907	0.041039493
125	0x3d9afe61	0.0756805
126	0xbd9e0e88	-0.07717615
127	0x3d034c12	0.03205497
128	0x3d216aa3	0.039408337
129	0xbd0e3e5a	-0.03472743
130	0xbd9eb855	-0.07750002
131	0x3c644f82	0.013934972
132	0xbd9c2fad	-0.07626281
133	0x3af0765b	0.001834582
134	0xbd84fc51	-0.06493438
135	0xbd0c8a3a	-0.03431151
136	0xbcb89e77	-0.0225365
137	0x3ab55e88	0.0013837377
138	0xbd9edada	-0.077565864
139	0x3bd641ba	0.006538597
140	0xbd566717	-0.052344408
141	0xbd4787cb	-0.048713487
142	0xbd5e8d11	-0.05433375
143	0x3d5f84d8	0.05457005
144	0x3d668bab	0.05628554
145	0xbd1f83c9	-0.03894404
146	0x3cba5fd7	0.022750778
147	0x3d0951a5	0.033525128
148	0xbd39434b	-0.04523019
149	0xbd7787c9	-0.06043223
150	0xbc66f315	-0.014096041
151	0x3db430fa	0.08798404
152	0xbcac865b	-0.02106016
153	0xbc9cf25a	-0.019158531
154	0x3be02c3d	0.006841211
155	0x3d394c20	0.045238614
156	0xbcffc6ae	-0.031222668
157	0xbd063a9f	-0.03277075
158	0xbd463a2d	-0.048395324
159	0x3b702587	0.0036643462
160	0xbd950640	-0.07276583
161	0x3d19624d	0.037447263
162	0x3d47b07c	0.048752293
163	0x3d3f25df	0.046666976
164	0xbd72891b	-0.059212785
165	0xbd6a5c4a	-0.05721692
166	0x3d64a6b7	0.055823054
167	0x3cd6223b	0.02613937
168	0xbd8208f7	-0.06349366
169	0x3d883db7	0.06652396
170	0x3d69ae4e	0.057050996
171	0x3cd509d5	0.026005665
172	0x3b689718	0.003549045
173	0x3d05b4dc	0.032643184
174	0x3d3bb92b	0.045830887
175	0x3d968ee0	0.0735147
176	0xbd4d40c5	-0.050110597
177	0x3c015790	0.007894412
178	0x3da228c1	0.079179294
179	0x3b9a804c	0.004715001
180	0xbca5f7d9	-0.020259785
181	0xbd19ea77	-0.03757712
182	0xbd87d719	-0.066328235
183	0xbc4b8994	-0.012422938
184	0xbc047173	-0.008083689
185	0xbd88c170	-0.0667752
186	0xbd69fe2e	-0.05712717
187	0x3d63cd3e	0.055615656
188	0xbda06476	-0.078316614
189	0xbd84c2c0	-0.06482458
190	0x3d9a2897	0.07527273
191	0x3bd1d15d	0.006403132
192	0xbcb922aa	-0.022599537
193	0xbd5afa99	-0.053461645
194	0xbd9c828b	-0.076420866
195	0x3d10eb6c	0.035380766
196	0x3d2cbbb6	0.042171203
197	0x3d87351b	0.06601926
198	0xbd9bfe27	-0.07616835
199	0xbd08783e	-0.033317797
200	0xbd888e4d	-0.06667767
201	0x3d7ad6cb	0.06124
202	0x3c9df4cd	0.01928177
203	0x3d36f5eb	0.04466812
204	0x3cf99d09	0.030470388
205	0xbcfb08f7	-0.030643923
206	0xbc1b7d9f	-0.0094904
207	0x3c0ea5e1	0.008706541
208	0xbd6ddeff	-0.058073994
209	0x3ccfb989	0.025357025
210	0xbbed9b23	-0.0072511598
211	0x3d1ead1a	0.0387393
212	0x3d1cfd73	0.038327646
213	0xbda4e0f5	-0.0805072
214	0xbca7641f	-0.020433484
215	0xbdbb46bb	-0.0914435
216	0x3c3f2c58	0.011668287
217	0xbb375058	-0.0027971473
218	0xbc60a72b	-0.013711731
219	0x3d517c98	0.051144212
220	0x3d8e7929	0.06956703
221	0xbd112e23	-0.03544439
222	0xbd48a442	-0.048984773
223	0xbd326920	-0.043557286
224	0xbd4e14d4	-0.050312832
225	0x3d5e0b63	0.054210078
226	0x3cfb583e	0.030681726
227	0x3d95a474	0.073067576
228	0x3ca3de65	0.020003507
229	0x3d9577bc	0.07298228
230	0xbd8f540b	-0.06998452
231	0xbcc9c49d	-0.024629885
232	0x3d824746	0.063612506
233	0x3d450c5f	0.0481075
234	0xbdaf1a19	-0.085498996
235	0xbd775e3e	-0.06039261
236	0xbaa83088	-0.0012831846
237	0xba9d95aa	-0.0012022753
238	0x3bd706e7	0.006562102
239	0xbd6e7d82	-0.058225162
240	0xba18513a	-0.00058104435
241	0x3dab385d	0.0836036
242	0x3d88f2b0	0.06686914
243	0xbd840cc4	-0.06447747
244	0x3d06dd14	0.03292568
245	0x3c877216	0.016533893
246	0x3d38a98e	0.045083575
247	0xbdad6179	-0.08465857
248	0x3d03b98f	0.032159384
249	0xbc5c59ba	-0.013449127
250	0x3da90ebc	0.082547635
251	0x3bbe7496	0.005812238
252	0xbcce82cb	-0.025208851
253	0x3d003268	0.03129807
254	0x3c97404a	0.018463273
255	0x3c6fc003	0.0146331815

model.1.bias f4 [64]
0	0x3d5ffa53	0.054682087
1	0x3d99c4bf	0.075082295
2	0x3cbdd2d5	0.023171822
3	0xbd1f22a4	-0.038851395
4	0xbdb07915	-0.086168446
5	0x3d60a73c	0.054846987
6	0x3d8a609f	0.0675671
7	0x3d160082	0.036621578
8	0x3d01a4cd	0.031651307
9	0xbce55c4e	-0.027998116
10	0xbcaaeda3	-0.020865267
11	0x3d718186	0.058961414
12	0xbd58fc55	-0.052975018
13	0xbd11a5ff	-0.035558697
14	0x3d691cb5	0.056912143
15	0x3d0e1642	0.034689195
16	0x3d6ca4ad	0.057774235
17	0xbd9d228c	-0.07672605
18	0xbd0d5a7c	-0.03451012
19	0xbd6b0f93	-0.0573879
20	0xbd17802b	-0.036987465
21	0xbd5651d5	-0.052324135
22	0x3c66b067	0.0140801435
23	0xbd88d575	-0.06681339
24	0xbd3ff821	-0.046867494
25	0x3cb2744b	0.021783968
26	0xbd8e982a	-0.06962617
27	0xbd9a323b	-0.07529112
28	0x3d50f83d	0.05101799
29	0x3bf57ce7	0.007491696
30	0xbd3dad3b	-0.046307784
31	0xbd5d7eb9	-0.05407593
32	0x3d994433	0.07483711
33	0xbcfcee49	-0.030875342
34	0xbd9d54c3	-0.07682183
35	0x3b444acb	0.0029951807
36	0xbbe69345	-0.007036599
37	0xbd9c0b13	-0.076193
38	0xbd391d5b	-0.04519401
39	0xbd69d606	-0.057088874
40	0xbd83a3f1	-0.06427754
41	0x3d8a37ad	0.067489006
42	0xbd27a6e5	-0.040930647
43	0x3cea8c23	0.028631276
44	0xbd5175ef	-0.05113786
45	0xbd8d4327	-0.06897574
46	0x3d91e5bf	0.07123899
47	0xbd20ee6a	-0.03928987
48	0xb9047f07	-0.00012635822
49	0xbab7208c	-0.0013971492
50	0x3cc66b3f	0.02422106
51	0xbc3e7fd3	-0.011627155
52	0xbd07cc73	-0.033153962
53	0x3d046eec	0.032332346
54	0x3d1563d3	0.036472153
55	0x3da3ec9b	0.08004113
56	0x3cecb7de	0.028896268
57	0xbccbe849	-0.024891036
58	0xbd2dd08a	-0.042435206
59	0x3d475321	0.048663262
60	0x3d141e4b	0.036161702
61	0x3d789230	0.06068629
62	0xbaf91a57	-0.0019005042
63	0xbc107d3e	-0.008818923

model.4.weight f4 [128, 64]
0	0xbd9ce035	-0.076599516
1	0xbddea91e	-0.108721
2	0xbd1b9ee4	-0.037993327
3	0x3dbfae7e	0.093594536
4	0xbdeb67ab	-0.114943825
5	0x3d53ce94	0.05171068
6	0x3da4adbe	0.08040951
7	0x3de062cc	0.10956344
8	0x3dad2c91	0.08455766
9	0x3e1264fa	0.14296332
10	0xbc48be0e	-0.012252344
11	0xbd1e7eb0	-0.038695037
12	0x3af44ef2	0.001863925
13	0xbc90b78e	-0.01766565
14	0x3dccc4ca	0.09998472
15	0x3d101b05	0.035182018
16	0x3db9c901	0.090715416
17	0x3b00f2fc	0.001967608
18	0xbdebb899	-0.115098186
19	0xbd6f9ae7	-0.058497336
20	0xbd09b8b7	-0.033623423
21	0xbd5c3a3e	-0.05376648
22	0xbdd57fd4	-0.10424772
23	0xbceb0cab	-0.028692564
24	0xbd932f9b	-0.071868144
25	0xbc5e3bd2	-0.013564067
26	0xbdb228a3	-0.08699157
27	0x3d91cfa0	0.071196795
28	0xbe0ffcc6	-0.14061269
29	0xbcb16e6e	-0.021659102
30	0x3c017324	0.007900987
31	0x3c2be24b	0.010490964
32	0x3d1db35a	0.03850112
33	0x3d19c0c8	0.037537366
34	0x3d03d810	0.032188475
35	0x3d1ebdde	0.03875529
36	0x3d21eb49	0.039531026
37	0x3d3bb00d	0.045822192
38	0x3e074718	0.13210714
39	0x3d5a3e2d	0.05328195
40	0x3d321e32	0.043485828
41	0xbc4362cb	-0.01192541
42	0x3c472564	0.012154911
43	0xbdfe8806	-0.12428288
44	0xbd8e031f	-0.06934189
45	0xbd9ce085	-0.07660011
46	0xbd30776e	-0.043082647
47	0xbcaffdd1	-0.021483334
48	0x3cd348a5	0.025791476
49	0x3d5c89a1	0.05384219
50	0xbd205bac	-0.039149925
51	0x3df1b3c8	0.11801869
52	0x3d6694d2	0.05629427
53	0x3dbbc0d9	0.09167642
54	0xba0d7853	-0.0005396653
55	0xbd42521a	-0.04744158
56	0x3dbb3a20	0.09141946
57	0xbd9fbe49	-0.07799966
58	0xbc0b7ac7	-0.008513159
59	0x3e0a53f7	0.13508593
60	0xbbc44dab	-0.005990704
61	0x3dc02ae4	0.09383181
62	0xbc976cb3	-0.018484449
63	0xbce0e8c4	-0.027454741
64	0x3d3f0076	0.0466313
65	0x3d35e7c1	0.04441047
66	0x3d66cae5	0.05634584
67	0x3daa3f67	0.08312874
68	0xbc9fa3f8	-0.019487366
69	0x3e109b65	0.14121778
70	0x3da51bd4	0.080619484
71	0xbd22866d	-0.03967898
72	0xbde181ee	-0.1101111
73	0x3d85f256	0.065403625
74	0xbe0586cd	-0.13039704
75	0x3c38e170	0.011284217
76	0x3da8574b	0.08219775
77	0x3ca11b60	0.019666374
78	0x3d9a4bd9	0.07533998
79	0xbe0300e6	-0.12793311
80	0x3dc0a3af	0.0940622
81	0xbda89040	-0.082306385
82	0x3dd677c3	0.104720615
83	0x3e192c65	0.14958341
84	0x3be836a7	0.007086593
85	0x3d72e7f8	0.059303254
86	0x3db2b739	0.08726353
87	0xbd287372	-0.041125722
88	0xbd699d9a	-0.057035066
89	0xbdc3ef8e	-0.09567176
90	0x3d9e3e6c	0.0772675
91	0x3dcb80aa	0.0993665
92	0xbd7927d6	-0.060829006
93	0x3cbaf9a8	0.022824124
94	0x3dc0ed30	0.0942024
95	0xbd3321df	-0.043733474
96	0x3d95a8db	0.07307597
97	0xbddea4b9	-0.10871262
98	0xbb5d51e6	-0.003377074
99	0xbdf8f9b6	-0.121570036
100	0x3dfb4787	0.12269502
101	0x3d04a340	0.03238225
102	0x3dbd9981	0.09257794
103	0xbda7a28e	-0.08185302
104	0x3ba6e55d	0.00509326
105	0x3c5cbf98	0.013473414
106	0xbc9fc644	-0.01950372
107	0x3d056d8f	0.032575186
108	0x3d680759	0.056647632
109	0x3e15273a	0.14565745
110	0x3df65513	0.12027945
111	0xbe0672d6	-0.13129744
112	0x3db906b0	0.09034479
113	0xbdfa29ed	-0.12215028
114	0x3cdac17c	0.026703589
115	0x3dce0abb	0.100606404
116	0xbcc29ed4	-0.023757376
117	0xbe04fcb1	-0.12987019
118	0x3dc40288	0.09570795
119	0xba9e0e0d	-0.0012058631
120	0x3d316dd9	0.04331765
121	0xbc541b7a	-0.012946004
122	0x3d2eefd4	0.042709187
123	0xbdeec028	-0.11657745
124	0xbd48849f	-0.048954602
125	0xbddb866b	-0.107189976
126	0xbd9fcf41	-0.078032024
127	0x3d9c9366	0.076453015
128	0xbd81474a	-0.063124254
129	0x3da8d64a	0.082439974
130	0xbd3aa6db	-0.045569282
131	0x3df2109f	0.118195765
132	0xbdf466f0	-0.11933696
133	0xbd606f2b	-0.054793518
134	0x3cd56b68	0.026052192
135	0x3d160dee	0.036634378
136	0x3db9609d	0.09051631
137	0x3cb6fa4d	0.02233615
138	0xbd433cf6	-0.04766556
139	0x3d74a9c7	0.059732225
140	0xbdc5a307	-0.096502356
141	0xbd3c1fe0	-0.045928836
142	0xbdf3ec77	-0.119103365
143	0xbd6e251f	-0.05814087
144	0x3defb47f	0.11704349
145	0x3de01ae7	0.10942631
146	0xbba36bef	-0.004987232
147	0xbde462e6	-0.11151676
148	0xbce70f51	-0.028205546
149	0x3c5051ef	0.012714847
150	0xbbafa85b	-0.0053606457
151	0x3da9132c	0.0825561
152	0x3c4382f5	0.011933078
153	0xbde6c8b1	-0.112687476
154	0x3b0bd65f	0.0021337492
155	0xbd9d3296	-0.07675664
156	0xbde58722	-0.11207415
157	0xbdb1c635	-0.08680383
158	0x3d8915d3	0.06693616
159	0x3d455d80	0.04818487
160	0x3d8595d1	0.06522716
161	0x3d7c8f6b	0.06166021
162	0xbb925fe4	-0.0044669975
163	0x3d1db716	0.038504682
164	0xbdd399c9	-0.103320666
165	0x3d9c5c7f	0.0763483
166	0xbc7cbad1	-0.0154254
167	0x3c7f063a	0.015565449
168	0xbde205b2	-0.110362425
169	0x3b7cedac	0.0038593812
170	0x3cfc7f31	0.030822368
171	0xbd6a4cd6	-0.057202183
172	0x3e0533a0	0.13007975
173	0xbd833b13	-0.06407752
174	0xbdf24244	-0.118290454
175	0xbd7767bc	-0.060401663
176	0x3d91e3c3	0.0712352
177	0x3d3eb141	0.04655576
178	0x3dab64c6	0.083688304
179	0xbbcda6c9	-0.006275986
180	0xbdba517b	-0.090975724
181	0x3dad6e87	0.08468347
182	0xbd5079e2	-0.050897487
183	0xbda53dfa	-0.08068462
184	0x3d40b240	0.047044992
185	0x3d993853	0.07481446
186	0x3d778155	0.060426075
187	0x3e10d866	0.1414505
188	0xbdb929e9	-0.09041197
189	0x3e139cb9	0.14415254
190	0xbdd5ca22	-0.104389444
191	0xbda54059	-0.08068914
192	0x3d95cc14	0.073143154
193	0xbe00eb6f	-0.12589811
194	0x3c751430	0.014958426
195	0x3da38377	0.07984059
196	0xbdb0adf8	-0.08626932
197	0xbb0c2430	-0.0021383874
198	0xbde36c96	-0.111046955
199	0x3c9dddb4	0.019270755
200	0xbd0692be	-0.032854788
201	0xbdb2db40	-0.08733225
202	0x3d89f914	0.06736961
203	0x3df2e940	0.11860895
204	0x3d2e979d	0.04262506
205	0x3d323a5e	0.043512695
206	0x3dc3f46d	0.09568105
207	0xbdc262f4	-0.0949153
208	0xbbd51a9b	-0.0065034158
209	0x3c68c0ce	0.0142061245
210	0xbd003709	-0.031302486
211	0xbdc8e573	-0.09809389
212	0x3d26f327	0.040759232
213	0x3df2ca64	0.11855009
214	0x3d903632	0.07041587
215	0xbd7ee926	-0.062234066
216	0x3db51909	0.08842666
217	0xbd08adad	-0.033368755
218	0x3b94ab7c	0.004537044
219	0x3d4d4894	0.050118044
220	0xbda6730d	-0.08127413
221	0xbdb9a462	-0.09064557
222	0x3d6f6803	0.058448803
223	0x3c7b6461	0.015343756
224	0xbe145ff8	-0.14489734
225	0xbd6bf721	-0.057608727
226	0x3db8f724	0.09031513
227	0x3d156140	0.036469698
228	0xbdb73673	-0.08945932
229	0xbcf9c0ce	-0.030487444
230	0xbd9f74ab	-0.077859245
231	0x3e0428ba	0.12906161
232	0xbd80ff24	-0.06298664
233	0xbd9209a6	-0.071307465
234	0xbd774977	-0.060372796
235	0x3d0c5b00	0.034266472
236	0x3dd5afd8	0.1043393
237	0xbcf4f9dd	-0.0299043
238	0xbd39b638	-0.045339793
239	0x3cb60d5b	0.022223165
240	0xbda459ab	-0.08024915
241	0x3d8265c3	0.06367066
242	0x3d7108ba	0.058846213
243	0x3c539f72	0.012916433
244	0x3a70c4f3	0.0009184621
245	0x3d45d3b8	0.048297614
246	0xbcb3079d	-0.021854216
247	0xbc94350c	-0.018091701
248	0x3cdf0b87	0.027227176
249	0xbdd9ab8c	-0.10628423
250	0x3c255e5d	0.010093299
251	0xbd0b061b	-0.03394137
252	0x3d954ebf	0.0729041
253	0x3d840ed6	0.06448142
254	0x3d66be07	0.056333568
255	0x3dc56f7b	0.09640404

model.4.bias f4 [128]
0	0x3e06b08f	0.1315329
1	0x3db0bb53	0.08629479
2	0x3da17816	0.07884233
3	0xbd8a82a5	-0.067632
4	0x3dd1f7c9	0.102523394
5	0x3d322988	0.04349664
6	0x3d247aaa	0.040156044
7	0x3dc51289	0.09622676
8	0x3bf23f34	0.0073927883
9	0x3df9d639	0.12199063
10	0x3d7e206d	0.062042642
11	0x3da1ff15	0.07909981
12	0xbdb6f7d1	-0.08933986
13	0x3c721f5c	0.0147779845
14	0xbb8f1899	-0.004366946
15	0x3d37e4e5	0.044896025
16	0xbd528a1d	-0.051401246
17	0xbd8737ab	-0.06602415
18	0xbbdacfd7	-0.0066776085
19	0x3d58bfa4	0.052917138
20	0x3dd84562	0.10560109
21	0xbd3e6143	-0.046479475
22	0x3df92a3c	0.12166259
23	0x3dee1c3e	0.116264805
24	0x3e111929	0.14169754
25	0x3c274c1a	0.010211015
26	0xbd0279dc	-0.031854495
27	0x3e0f7695	0.14010079
28	0xbc51cf23	-0.012805733
29	0xbe1919bb	-0.14951222
30	0xbd601627	-0.054708626
31	0xbd464a4b	-0.048410695
32	0xbdc6ab7e	-0.09700678
33	0xbca3250f	-0.019915132
34	0xbe1008ac	-0.14065808
35	0x3d98b91c	0.07457182
36	0xbcf31134	-0.029671289
37	0x3dccf4f8	0.100076616
38	0xbe14ae28	-0.1451956
39	0x3d3a8c3b	0.04554389
40	0x3d86af58	0.06576413
41	0xbcc7d5cb	-0.024393937
42	0x3df9d732	0.121992484
43	0x3be5756b	0.0070025227
44	0x3dc74b96	0.09731214
45	0x3de82da0	0.11336827
46	0x3d026684	0.031836048
47	0x3df04522	0.11731936
48	0xbd0fa157	-0.035065975
49	0xbdbf2ec8	-0.09335095
50	0x3d8b21fe	0.06793593
51	0x3dfe6c99	0.12423057
52	0x3db56fa7	0.088591866
53	0x3cf6feea	0.03015085
54	0x3de6f3a3	0.11276939
55	0xbc710b43	-0.014712158
56	0xbc6c08bf	-0.014406382
57	0xbdb15ba9	-0.08660061
58	0x3df2b0d5	0.11850134
59	0xbd9c44fc	-0.07630345
60	0xbcf7eac2	-0.030263308
61	0xbdc2d756	-0.09513728
62	0xbd536db8	-0.051618308
63	0xbdae82d9	-0.08521051
64	0x3df32887	0.11872964
65	0x3e133323	0.14374976
66	0x3cde60d3	0.027145779
67	0x3dbf6744	0.09345868
68	0xbcfe9bbd	-0.031080121
69	0x3cdd23ac	0.026994549
70	0x3df323ad	0.11872039
71	0x3dbf7e31	0.09350241
72	0xbd2d0422	-0.04224027
73	0xbda9fba3	-0.08299949
74	0x3d4f2eda	0.05058179
75	0xbd90eedd	-0.070768096
76	0x3bcaa3b5	0.006184066
77	0x3d27aca0	0.040936112
78	0xbdba8d1e	-0.09108947
79	0x3de61a0f	0.11235439
80	0xbdc4cdf6	-0.096095964
81	0x3cbe4657	0.0232269
82	0x3d917799	0.071028896
83	0x3e038cd9	0.12846698
84	0x3db280ba	0.08715959
85	0x3d7b6090	0.061371386
86	0x3e0ca484	0.13734633
87	0xbce951cf	-0.028481392
88	0x3c3960e3	0.0113146035
89	0x3cd57d9a	0.026060868
90	0xbdd52cf8	-0.10408968
91	0xbd8fa7e3	-0.07014444
92	0x3d52732d	0.05137937
93	0xbc9d0281	-0.019166233
94	0xbd07bbbc	-0.03313802
95	0xbd901b71	-0.07036484
96	0xbd591b09	-0.0530043
97	0xbd169a51	-0.03676826
98	0x3df7eef8	0.121061265
99	0xbd388146	-0.04504516
100	0x3d845dc8	0.064632
101	0xbd29095e	-0.0412687
102	0x3e129b00	0.1431694
103	0x3e07c95d	0.13260408
104	0xbe186c1c	-0.1488499
105	0xbdb91ad8	-0.09038323
106	0xbdd2a754	-0.102858216
107	0x3c8a8566	0.016909312
108	0x3d0ab72b	0.03386609
109	0x3cf1ab19	0.029500531
110	0x3c3dead6	0.011591634
111	0x3d6472d9	0.05577359
112	0xbd06fd15	-0.0329562
113	0xbdeb9e63	-0.11504819
114	0x3bd9e02c	0.006649038
115	0x3d96708d	0.07345686
116	0xbe140e19	-0.14458503
117	0xbe008268	-0.12549746
118	0x3dad36a0	0.084576845
119	0xbd907e39	-0.07055325
120	0xbd44c5f9	-0.048040364
121	0xbdda4f35	-0.10659639
122	0x3e219c69	0.15782322
123	0xb99ee465	-0.00030306276
124	0xbc19d9f6	-0.009390345
125	0x3e0bb4e3	0.13643222
126	0x3d868386	0.06568055
127	0x3dd7ffc0	0.10546827

model.7.weight f4 [512, 128]
0	0xbdb98785	-0.090590514
1	0xbd0f27f5	-0.034950215
2	0x3d863f26	0.06555013
3	0xbcb31906	-0.021862518
4	0xbda8ed8f	-0.08248436
5	0xbd7dd156	-0.061967216
6	0x3cfbde27	0.030745579
7	0xbbb342d8	-0.005470615
8	0x3c9fe3dc	0.019517832
9	0x3d831e97	0.06402319
10	0x3d020586	0.03174355
11	0xbcffd303	-0.031228548
12	0xbcd24431	-0.025667282
13	0xbdabfd3c	-0.0839791
14	0xbcae159f	-0.021250544
15	0x3d9ef530	0.077616096
16	0x3d918a97	0.07106512
17	0x3c4247e1	0.011857958
18	0xbda2ae9f	-0.079434626
19	0xbd87e513	-0.06635489
20	0x3d3d3114	0.046189383
21	0xbda7e5e3	-0.08198144
22	0xbd04986c	-0.032371923
23	0xbdc196a7	-0.09452563
24	0xbd8028af	-0.0625776
25	0xbb6bd640	-0.0035985857
26	0x3d31bb10	0.043391287
27	0x3d1e7049	0.038681302
28	0xbd278f18	-0.04090795
29	0xbd5c429e	-0.05377447
30	0x3d26bd5a	0.040707923
31	0x3da406dc	0.08009121
32	0x3d1c4950	0.038155854
33	0x3db4524f	0.088047616
34	0x3d8699b2	0.06572284
35	0xbc6a5a8e	-0.0143038165
36	0xbd826cc2	-0.063684
37	0x3d31bbdb	0.043392044
38	0x3dbf20ce	0.09332429
39	0x3d001764	0.031272307
40	0xbb7259a4	-0.00369797
41	0x3ca78b8e	0.020452287
42	0x3da1ac52	0.078941956
43	0xbd9f34a0	-0.07773709
44	0xbd5179b2	-0.05114145
45	0xbcbe2f40	-0.02321589
46	0x3b0dde00	0.0021647215
47	0xbc36b1ce	-0.01115079
48	0xbd2ff10c	-0.04295449
49	0xbd117fd2	-0.03552229
50	0x3d474a06	0.04865458
51	0xbd656655	-0.056005795
52	0x3cba2874	0.022724368
53	0x3d821d93	0.06353297
54	0xbd8bfd8f	-0.06835472
55	0x3db0ca78	0.08632368
56	0x3dacf3c2	0.084449306
57	0x3d1ffa20	0.039056897
58	0xbc486a1e	-0.012232332
59	0x3d99411c	0.07483122
60	0xbcbaefa2	-0.022819344
61	0xbd62c1e3	-0.055360686
62	0x3d63a660	0.05557859
63	0xbca42e3d	-0.02004158
64	0x3cc1a7fb	0.02363967
65	0x3ce6b033	0.02816019
66	0xbd93aeb8	-0.07211059
67	0xbd115f05	-0.03549101
68	0x3d9df88f	0.077134244
69	0x3cf3c157	0.029755278
70	0xbd07bbc3	-0.033138048
71	0x3dc643e4	0.09680918
72	0xbd78c575	-0.060735185
73	0xbdb459df	-0.08806204
74	0x3d969135	0.07351915
75	0xbd9a82be	-0.07544468
76	0x3d229f83	0.039702903
77	0x3d52e45b	0.051487308
78	0xbd785a09	-0.06063274
79	0x3d56c567	0.05243435
80	0x3ce94b4d	0.028478289
81	0x3c9b4997	0.018955989
82	0x3c98a470	0.018633097
83	0x3d426fd6	0.047469936
84	0x3cbef730	0.023311228
85	0x3d84004a	0.06445368
86	0x3d5eafa5	0.054366726
87	0xbc931334	-0.017953493
88	0x3d5ec313	0.054385256
89	0x3d1656df	0.03670394
90	0x3c92d9c5	0.017926106
91	0xbc927309	-0.017877119
92	0x3d41c599	0.047307584
93	0x3ce5e577	0.028063519
94	0xbdc4aa97	-0.0960285
95	0xbd2314be	-0.039814703
96	0xbc9389f6	-0.01801012
97	0xbc957d51	-0.018248232
98	0x3ce2f4e6	0.027704667
99	0x3d9ee579	0.07758612
100	0xbdcd2f80	-0.100188255
101	0xbd23e301	-0.04001141
102	0xbd9f85c7	-0.07789188
103	0x3cc98874	0.024601199
104	0x3da8e2ec	0.08246407
105	0x3dc11991	0.094287045
106	0x3dbf5fa7	0.09344416
107	0xbca80fa7	-0.020515276
108	0xbdb415c3	-0.08793213
109	0xbb98a330	-0.0046581253
110	0x3bfe3c70	0.0077586696
111	0x3d85ca58	0.06532735
112	0x3d743332	0.059619136
113	0xbd559563	-0.05214442
114	0x3bf1520f	0.0073645185
115	0x3d51b986	0.05120232
116	0x3d3bb150	0.045823395
117	0xbccb32dc	-0.024804525
118	0xbc3acf77	-0.011402003
119	0xbd885c14	-0.066581875
120	0xbced12d2	-0.028939638
121	0xbc16f8b2	-0.009214567
122	0xbd335c63	-0.04378928
123	0x3c9d71e5	0.019219348
124	0x3d2a20d0	0.0415352
125	0x3b032314	0.0020009922
126	0x3cc48f27	0.023994042
127	0xbdaf0a33	-0.08546867
128	0xbdc226c5	-0.09480051
129	0xbc9203f3	-0.017824149
130	0x3c373e63	0.011184308
131	0xbdb1dae5	-0.08684329
132	0xbd917456	-0.071022674
133	0xbd68d966	-0.056847952
134	0x3cf1a555	0.029497782
135	0xbc94e08f	-0.018173484
136	0xbd0882ed	-0.033327986
137	0xbb9f54fe	-0.004862427
138	0x3d49c624	0.049261227
139	0xbdbe4aa4	-0.0929158
140	0x3b077afe	0.0020672674
141	0xbd72167d	-0.059103478
142	0x3ab969d8	0.0014145924
143	0xbd227753	-0.039664578
144	0x3d1400f5	0.036133725
145	0xbcfc2db1	-0.030783506
146	0xbd17f13c	-0.037095293
147	0xbccbe94a	-0.024891514
148	0x3c9b55ef	0.018961875
149	0xbc9452b7	-0.018105848
150	0x3d0eb731	0.034842674
151	0x3d746f3f	0.059676405
152	0xbcc93bc1	-0.024564626
153	0xbdc8f830	-0.09812963
154	0x3dbd4cf2	0.09243192
155	0x3d5a9b6b	0.053370874
156	0xbd808303	-0.062749885
157	0xbd85e458	-0.06537694
158	0x3cf09b5c	0.029370956
159	0xbd52f306	-0.051501296
160	0xbd3d2bd5	-0.04618438
161	0xbd17afb0	-0.037032783
162	0x3d106933	0.035256576
163	0x3c91e6ca	0.017810244
164	0xbc91c00a	-0.017791767
165	0x3ac9e35c	0.0015402841
166	0x3d7a8d74	0.061170056
167	0xbd11e5e3	-0.035619628
168	0x3d066e27	0.032819893
169	0xbcba0c0e	-0.022710826
170	0xbd967abb	-0.07347628
171	0x3dc1e286	0.09467034
172	0xbd92ab4f	-0.07161581
173	0x3c0a3515	0.008435507
174	0x3ca89fa3	0.020583933
175	0x3d593e8e	0.053038172
176	0xbd4589e5	-0.04822721
177	0xbcc3aa51	-0.023884924
178	0xbdbfc068	-0.093628705
179	0x3be7f329	0.0070785475
180	0xbd46098d	-0.048348952
181	0x3d6d759d	0.057973493
182	0xbd7125fd	-0.05887412
183	0x3dae2dfb	0.08504864
184	0x3d24101e	0.040054433
185	0xbd21693c	-0.039407
186	0xbdce1d7f	-0.1006422
187	0x3d7605a9	0.06006399
188	0xbda2ae4b	-0.079434
189	0x3da146be	0.07874821
190	0xbc879abd	-0.016553277
191	0xbd34b8cd	-0.044121552
192	0x3cc3513c	0.023842447
193	0x3d3de9eb	0.04636566
194	0xbc8947f3	-0.01675794
195	0x3c757d8b	0.014983545
196	0xbd3ba4da	-0.04581151
197	0xbbc39d36	-0.0059696687
198	0x3c1a6f75	0.0094259875
199	0x3dae3685	0.085064925
200	0x3c98af83	0.018638378
201	0x3d458ac8	0.048228055
202	0x3d96a6b3	0.07356014
203	0xbc7fc6bd	-0.015611348
204	0x3dbf3a17	0.09337252
205	0x3d30e888	0.04319051
206	0x3dc8bd17	0.09801691
207	0xbdcf4ada	-0.10121699
208	0x3d38c346	0.045108102
209	0xbd81fdc9	-0.06347234
210	0xbb197b57	-0.0023419464
211	0xbdbe3477	-0.092873506
212	0xbc0b1459	-0.008488738
213	0xbc42916e	-0.011875493
214	0x3d708f0d	0.058730174
215	0xbdd5afe1	-0.10433937
216	0x3db790ed	0.08963189
217	0x3d9b6c81	0.07589055
218	0x3ca9abc5	0.020711789
219	0xbd0adc10	-0.033901274
220	0xbd9140d6	-0.070924446
221	0x3d82d18a	0.06387623
222	0x3d680c67	0.056652453
223	0xbd79a458	-0.060947746
224	0xbd1c5d7e	-0.0381751
225	0xbd62e0e9	-0.055390272
226	0xbd43fc41	-0.04784799
227	0xbdae53e5	-0.08512095
228	0xbda91587	-0.08256059
229	0xbd1c6a22	-0.038187154
230	0xbd8697d0	-0.06571925
231	0xbcb079db	-0.02154248
232	0x3db9b0dd	0.09066937
233	0xbd033ada	-0.032038547
234	0x3a1fcb46	0.0006095659
235	0xbc684b52	-0.014178114
236	0x3d903848	0.07041985
237	0xbd73d183	-0.059525978
238	0xbdc8bcc1	-0.09801627
239	0x3d5a7421	0.053333405
240	0xbdb1a690	-0.086743474
241	0xbcd64b9a	-0.026159097
242	0xbd1a6ea9	-0.03770319
243	0x3d33f635	0.043935973
244	0x3dc6f80d	0.09715281
245	0x3caa26f5	0.02077053
246	0x3d47e608	0.04880336
247	0x3c19ac2a	0.009379426
248	0xbd92e8a4	-0.07173279
249	0xbd873f3f	-0.0660386
250	0xbc2dd280	-0.010609269
251	0xbd930d44	-0.071802646
252	0xbcc4497b	-0.02396082
253	0xbca4f411	-0.020135911
254	0xbd3b6838	-0.045753688
255	0xbda4300a	-0.08016975

model.7.bias f4 [512]
0	0xbd054983	-0.03254081
1	0x3d8b12da	0.06790705
2	0xbb5b9abd	-0.003350898
3	0xbdaf128b	-0.08548459
4	0xbd9868d1	-0.07441867
5	0xbdc275a7	-0.09495097
6	0xbd32650e	-0.043553405
7	0xbd2b52d5	-0.04182704
8	0xbce96e46	-0.028494965
9	0xbdb88db8	-0.09011406
10	0xbd9d3667	-0.07676392
11	0x3d344570	0.044011533
12	0xbc7e3ef3	-0.015517938
13	0x3d8f53c7	0.06998401
14	0x3d46b05b	0.04850803
15	0xbc35889a	-0.011079932
16	0x3de2e68e	0.11079131
17	0x3d14c66a	0.036322035
18	0x3c280aef	0.010256513
19	0x3dbdd39b	0.09268876
20	0x3d9e148a	0.07718761
21	0xbcce91da	-0.025216032
22	0xbd375074	-0.04475446
23	0x3d97d896	0.07414357
24	0x3b8416a5	0.0040310198
25	0xbdb24f3d	-0.0870652
26	0x3daf7ca5	0.08568696
27	0xbd4362a7	-0.047701504
28	0x3d37675f	0.044776317
29	0xbd9ea946	-0.0774713
30	0x3d5aa945	0.053384084
31	0x3d85938f	0.06522285
32	0xbcfe24d3	-0.031023419
33	0xbc6d7827	-0.014493979
34	0x3c95cf39	0.018287288
35	0x3d940652	0.07227768
36	0x3d1fcab6	0.03901168
37	0x3cb85864	0.022503085
38	0xbcb05118	-0.021523044
39	0xbd5dd23e	-0.05415558
40	0x3d04fea3	0.032469403
41	0xbc25ac53	-0.010111886
42	0x3cbd2334	0.023088075
43	0x3ca2d94e	0.01987901
44	0xbd6a9167	-0.057267573
45	0xbce16432	-0.027513597
46	0xbd0d7e67	-0.034544375
47	0xbc92e105	-0.017929563
48	0xbdb8f300	-0.090307236
49	0x3d81a98a	0.06331165
50	0x3d3fe551	0.046849553
51	0x3dc49b79	0.095999666
52	0xbb8c9adf	-0.004290923
53	0x3cecabfe	0.028890606
54	0xbd7c65f1	-0.061620656
55	0xbb96789e	-0.0045920154
56	0x3db5e080	0.088807106
57	0x3d6c7345	0.057727117
58	0x3d83349c	0.06406519
59	0xbd4c0074	-0.04980512
60	0x3d943a83	0.07237723
61	0x3d73eb28	0.059550434
62	0xbd2416f7	-0.040060963
63	0x3d3f0d65	0.046643633
64	0x3d58fd7e	0.052976124
65	0x3d4426e5	0.047888655
66	0x3dc6f8c9	0.09715421
67	0xbd94dcdb	-0.07268687
68	0xbd0e491b	-0.034737688
69	0xbaecc636	-0.0018064443
70	0x3c8027bb	0.015643945
71	0xbce28987	-0.027653469
72	0xbd9009de	-0.07033132
73	0xbcd9e465	-0.026598165
74	0xbd1a7d45	-0.037717123
75	0xbd397f99	-0.045287702
76	0xbcd74cde	-0.02628177
77	0x3c24d6c9	0.010060974
78	0xbb20f17a	-0.0024557994
79	0x3c13399c	0.008985903
80	0xbdbffa33	-0.093738936
81	0x3d7fd55b	0.06245933
82	0xbd0dd6de	-0.03462874
83	0xbd2455a3	-0.040120732
84	0xbc6282ea	-0.013825158
85	0xbd3b12aa	-0.045672096
86	0xbc9fa5c9	-0.019488232
87	0xbd6ce853	-0.05783875
88	0xbc61c058	-0.0137787685
89	0x3d76bba9	0.06023756
90	0xbd873f20	-0.06603837
91	0xbd678e3e	-0.056532137
92	0x3d2f5045	0.04280116
93	0xbd923a99	-0.07140083
94	0x3d74f868	0.05980721
95	0x3d34a24e	0.0441001
96	0x3d3eb1b2	0.046556182
97	0xbd370c47	-0.044689443
98	0xbcc02232	-0.023453806
99	0xbcd87a27	-0.026425434
100	0x3c7c074f	0.015382602
101	0xbd62f671	-0.055410806
102	0x3d226e05	0.039655704
103	0xbd84ef12	-0.064909115
104	0x3d527c6d	0.051388193
105	0x3d527848	0.05138424
106	0xbcb7264c	-0.022357129
107	0xbd9c2a14	-0.07625213
108	0x3d3ef818	0.04662332
109	0x3dc9e549	0.09858186
110	0xbdaa8919	-0.083269306
111	0x3c048339	0.008087927
112	0x3d7d8c12	0.06190116
113	0xbc182ab8	-0.009287529
114	0xbd6ef032	-0.058334537
115	0xbad0dc5d	-0.0015934814
116	0x3bd6955a	0.006548566
117	0xbd6d2293	-0.0578943
118	0x3d8bc04e	0.068237886
119	0xbdc9e413	-0.09857955
120	0xbb465233	-0.0030261397
121	0x3da5de0b	0.08098992
122	0x3d937a32	0.07201041
123	0xbcb0c231	-0.021576973
124	0x3d595ce9	0.05306712
125	0xbd10f116	-0.035386167
126	0xbccbf01f	-0.024894772
127	0x3d0bbe42	0.03411699
128	0xbd7d417a	-0.06183002
129	0x3bbb77d1	0.0057210703
130	0xbd12a28f	-0.03579956
131	0xbdc770c2	-0.09738304
132	0x3d7dad79	0.061933015
133	0xbdd5ea89	-0.10445125
134	0x3c3772a0	0.011196762
135	0x3d3051a7	0.04304662
136	0xbd619a7d	-0.055078972
137	0x3cc8c518	0.024508044
138	0xbc7c9fbc	-0.015418943
139	0x3bcfd921	0.0063430225
140	0xbd00468e	-0.031317286
141	0xbd81c168	-0.063357174
142	0xbd0db15b	-0.034592967
143	0x3d616291	0.05502564
144	0xbdd7e586	-0.10541825
145	0xbaedd506	-0.0018145151
146	0xbdb9192d	-0.09038005
147	0x3da9cd2b	0.08291086
148	0xbdb148dd	-0.08656476
149	0xbda97792	-0.08274759
150	0xbd463c9f	-0.048397657
151	0x3c66b826	0.01408199
152	0x3ac83992	0.0015275946
153	0x3cb6f3ef	0.022333113
154	0x3dcd4403	0.10022738
155	0xbdc19639	-0.09452481
156	0x3c8bcb01	0.017064573
157	0x3d065dd0	0.03280431
158	0x3da29086	0.07937722
159	0xbd7e7e42	-0.062132128
160	0x3cd21dcb	0.025648972
161	0x3d9f8bc2	0.077903286
162	0x3c93c36f	0.018037526
163	0x3d9c4ac6	0.076314494
164	0xbd145093	-0.036209654
165	0xbd31507d	-0.04328965
166	0xbd29af75	-0.041427094
167	0x3d80e711	0.062940724
168	0xbdda9258	-0.10672444
169	0x3d7886ac	0.060675308
170	0x3d89a85c	0.06721565
171	0xbdc3f93c	-0.09569022
172	0x3d0f7734	0.03502579
173	0x3d7a3c76	0.061092816
174	0x3d3f829c	0.04675542
175	0x3dcd2a27	0.100178055
176	0x3d3ee33a	0.04660342
177	0x3dd0b947	0.10191589
178	0xbcf0dbcb	-0.02940168
179	0xbdb7e557	-0.0897929
180	0xbd94cc2f	-0.072655074
181	0xbdd56bff	-0.10420989
182	0x3d9ecee3	0.07754304
183	0xbda293ba	-0.07938333
184	0xbd1117da	-0.035423137
185	0xbd834c55	-0.064110436
186	0xba1af467	-0.00059110526
187	0x3cc7349c	0.024317078
188	0x3dd9bf8c	0.10632238
189	0x3ced6bb2	0.028982017
190	0x3d81ae6a	0.06332095
191	0xbdbcf445	-0.09226278
192	0xbd8bfa05	-0.06834797
193	0xbca9aced	-0.02071234
194	0x3d517147	0.05113342
195	0xbc9b012e	-0.018921461
196	0x3c24a305	0.0100486325
197	0xbcc2ca5a	-0.02377813
198	0xbc2f96fe	-0.010717152
199	0x3d142b30	0.036174
200	0x3d29d179	0.041459534
201	0xbdc116b6	-0.0942816
202	0xbcedb6fa	-0.029017914
203	0x3d90b9bc	0.07066676
204	0xbd574a44	-0.05256106
205	0xbcce5d7b	-0.02519106
206	0xbd3aa9bf	-0.04557204
207	0x3d5ececd	0.05439644
208	0xbd450b8e	-0.048106723
209	0xbc832ae2	-0.016011659
210	0x3cec00f3	0.028809046
211	0x3d7c36d7	0.061575737
212	0x3c042da4	0.008067522
213	0x3cae529f	0.021279631
214	0x3cb30873	0.021854615
215	0xbdbaa0b8	-0.09112686
216	0xbd11eb3e	-0.035624735
217	0x3d35a8af	0.044350322
218	0xbd4def47	-0.05027702
219	0xbd2b0607	-0.041753795
220	0x3c9a3c9f	0.018827735
221	0xbd1dc89f	-0.038521405
222	0xbc9ed30e	-0.019387748
223	0x3d2efa5d	0.042719234
224	0xbcd525e0	-0.026019037
225	0x3d014035	0.031555373
226	0xbda062d7	-0.07831352
227	0x3d8eb321	0.0696776
228	0x3d67e5d3	0.05661566
229	0x3d5f8be6	0.054576777
230	0x3d8e6198	0.06952208
231	0xbca74ddf	-0.020422874
232	0xbd056ca1	-0.0325743
233	0xbdd143d7	-0.102180175
234	0x3cb905f1	0.02258584
235	0xbd2a4836	-0.041572772
236	0xbd051181	-0.032487396
237	0xbd13d2ae	-0.03608959
238	0x3ccb8ba6	0.024846863
239	0x3cb43f55	0.022002855
240	0xbd4ac639	-0.049505446
241	0xbdca67e9	-0.098831005
242	0xbc5f9207	-0.0136456555
243	0x3ce33ebf	0.02773988
244	0xbd1798c5	-0.037010927
245	0xbc36d118	-0.01115825
246	0xbcd1d748	-0.02561535
247	0x3dd4b6ed	0.10386453
248	0xbdc78b47	-0.09743362
249	0x3d597908	0.05309394
250	0x3d2e61fb	0.04257391
251	0xbdacedc1	-0.084437855
252	0xbb172d54	-0.002306779
253	0xbdb9dd70	-0.09075439
254	0x3da033e7	0.078223996
255	0x3bd6367c	0.0065372568

model.10.weight f4 [128, 512]
0	0x3cb8328a	0.022485036
1	0x3bc13d04	0.005897166
2	0xbd2c15fc	-0.042013153
3	0x3c8d4d9a	0.017248917
4	0x3c71b5ab	0.014752786
5	0x3d875bad	0.06609283
6	0x3c9a5641	0.018839957
7	0x3b3083b6	0.0026933975
8	0xbd4ced74	-0.05003114
9	0xbb836edd	-0.0040110187
10	0x3cf75202	0.030190472
11	0xbc8031c9	-0.01564874
12	0x3c82b772	0.015956614
13	0xbc94e86e	-0.018177237
14	0x39fa3bd0	0.0004772828
15	0xbc0d4dc8	-0.0086245015
16	0xbd0460ba	-0.03231881
17	0xbbbecac5	-0.005822512
18	0xbc14606f	-0.009056195
19	0xbb38a4e3	-0.0028174452
20	0x3c59ecce	0.013301088
21	0x3d35985b	0.04433475
22	0xbc823a38	-0.015896901
23	0xbd3ed55a	-0.046590187
24	0x3d168f7f	0.036757942
25	0x3cf40188	0.029785886
26	0xbbd5f7d6	-0.0065297885
27	0xbc3e9321	-0.011631758
28	0xbd358615	-0.044317324
29	0x3c6250e6	0.013813233
30	0xbae4a14a	-0.0017443087
31	0xbccf2fbf	-0.025291322
32	0xbcc03c1c	-0.023466162
33	0xbd816133	-0.063173674
34	0x3c7d9da8	0.015479483
35	0xbd67aa9a	-0.056559183
36	0x3d3252f5	0.043536145
37	0x3b615442	0.0034382497
38	0xbc84576c	-0.016154967
39	0x3d0db9d2	0.03460104
40	0x3d8b6833	0.06806984
41	0x3d620022	0.055175908
42	0xbc4eee08	-0.012629993
43	0xbc86edb9	-0.016470777
44	0x3cb21a6d	0.021741116
45	0x3c758ffd	0.014987943
46	0x3d7e0fbf	0.062026735
47	0x3d13c0e7	0.036072638
48	0x3d28b8e8	0.041191965
49	0x3d12348b	0.03569464
50	0x3c64dae1	0.0139682
51	0xbce01aa1	-0.027356448
52	0x3d8893d8	0.06668824
53	0xbd61e7dc	-0.05515276
54	0x3c042d68	0.008067466
55	0xbbf51e38	-0.007480409
56	0x3c500a62	0.012697788
57	0xbd0f68e6	-0.03501215
58	0xbd502053	-0.050812077
59	0xbd030ef5	-0.031996686
60	0x3bd3bdb7	0.0064618248
61	0x3d3d237d	0.046176422
62	0x3d350236	0.04419156
63	0x3d1dd211	0.038530413
64	0xbd914cc5	-0.07094721
65	0xbc0f10b7	-0.0087320125
66	0xbd45c563	-0.048283946
67	0xbb4dbb73	-0.0031392246
68	0xbce8d840	-0.028423429
69	0xbd1cd9b5	-0.03829356
70	0x3d053620	0.03252232
71	0x3d4cb597	0.049977865
72	0x3cabea9e	0.020985898
73	0x3ce74101	0.028229238
74	0x3c535658	0.012899004
75	0x3b8035b7	0.0039126533
76	0xbd732fb8	-0.05937168
77	0xbd446e4a	-0.047956742
78	0x3be1b88a	0.006888454
79	0xbd553936	-0.052056514
80	0x3d5183d5	0.051151115
81	0xbb369760	-0.0027861223
82	0xbd29e729	-0.041480217
83	0xbd4c058c	-0.049809977
84	0xbd791cd0	-0.060818493
85	0x3c4e4b6a	0.012591222
86	0xbd27a883	-0.04093219
87	0x3d6997fa	0.0570297
88	0x3c9126ec	0.017718755
89	0xbd954e23	-0.07290294
90	0x3b81a6d7	0.0039566564
91	0x3ce3a78e	0.027789857
92	0x3cb686eb	0.02228113
93	0xbccf4734	-0.025302507
94	0xbc6d7d56	-0.014495214
95	0x3c8e72f6	0.017388802
96	0xbc608326	-0.013703143
97	0x3c05ac6f	0.008158787
98	0xbd88b18e	-0.06674491
99	0x3cf76895	0.030201236
100	0x3d5d005c	0.05395542
101	0x3d586674	0.052832082
102	0xbd614813	-0.055000376
103	0xb992d6f3	-0.0002800744
104	0xbd34a78c	-0.044105098
105	0x3d942656	0.072338745
106	0x3ce728a1	0.028217616
107	0xbab7b16d	-0.0014014669
108	0xbd2f4261	-0.042787913
109	0xbd491742	-0.049094446
110	0x3b86d00b	0.004114156
111	0xbabf6435	-0.0014602008
112	0xbd1c6cfe	-0.03818988
113	0x3c9a94a5	0.018869707
114	0xbca85bdd	-0.020551616
115	0xbc709af6	-0.014685383
116	0xbd73fdcf	-0.059568223
117	0x3cdee0ff	0.027206896
118	0x3b6ae6c0	0.0035843104
119	0x3cc5edb3	0.024161195
120	0xbcf26817	-0.02959065
121	0x3b1bf1c1	0.002379522
122	0x3d28c54e	0.04120379
123	0x3d215a95	0.039393026
124	0x3d3977ae	0.04528015
125	0xbc13e5b1	-0.009026931
126	0x3c58c1cf	0.013229801
127	0xbbdf30c6	-0.006811234
128	0xbc916e42	-0.01775277
129	0xbcf16513	-0.029467141
130	0x3d4c226d	0.04983752
131	0x3d3d5169	0.046220217
132	0xbd0d5802	-0.03450776
133	0x3d12b8a3	0.035820615
134	0xbd5b7c35	-0.05358525
135	0x3cb286a0	0.02179271
136	0x3d798e99	0.060927007
137	0x3b2806fc	0.0025638929
138	0xbb50b8ad	-0.0031848357
139	0x3c63543f	0.013875066
140	0x3c910112	0.017700706
141	0x3d265822	0.040611394
142	0x3cf6aab6	0.030110698
143	0xbcb99113	-0.022652185
144	0x3ccf0f6c	0.025275908
145	0xbd39b84d	-0.04534178
146	0x3cfda638	0.030963048
147	0xbce5e92b	-0.028065285
148	0xbb2118a7	-0.0024581344
149	0xbc6c648c	-0.014428269
150	0xbd7c2038	-0.061554164
151	0x3c14f3b4	0.0090913065
152	0xbce9cacd	-0.028539086
153	0xbd4b0b8a	-0.04957155
154	0xbcf45a94	-0.029828347
155	0x3d5cf0dc	0.05394064
156	0x3cfdb384	0.030969389
157	0xbb776b19	-0.0037753044
158	0xbb905a4f	-0.004405297
159	0x3c242154	0.010017712
160	0x3b230d7d	0.0024879866
161	0x3c8397c6	0.016063582
162	0x3d7a0320	0.061038136
163	0xbc24280e	-0.010019315
164	0xbd3632bc	-0.044481978
165	0x3b8049f8	0.0039150678
166	0x3c039e13	0.008033293
167	0x3d645c39	0.055752013
168	0xbc516aff	-0.0127818575
169	0x3d5ee463	0.054417025
170	0xbc2931e9	-0.010326841
171	0x3d40fbc3	0.0471151
172	0x3d7037f3	0.058647107
173	0xbced1694	-0.02894143
174	0xbd887104	-0.06662181
175	0x3c2179de	0.009855716
176	0xbd86d25d	-0.06583092
177	0xbc95aeb8	-0.018271789
178	0x3bfc2115	0.0076943734
179	0x3c4ee427	0.012627638
180	0x3c843fa3	0.016143626
181	0x3d8276f9	0.063703485
182	0xbd4cbc1a	-0.049984075
183	0x3d4a726b	0.049425524
184	0xbd661f1e	-0.05618202
185	0x3d80b669	0.06284792
186	0xbba6b4a6	-0.005087453
187	0x3cc41b2b	0.023938736
188	0xbc582804	-0.013193134
189	0xbd0e11a2	-0.034684785
190	0x3cdabe28	0.026702002
191	0xbc6dbeb7	-0.014510802
192	0x3d7f77ff	0.062370297
193	0xbbdbd651	-0.006708898
194	0xbd2e3ca0	-0.042538285
195	0x3d87bac4	0.066274196
196	0x3c52a762	0.01285729
197	0xbc932eeb	-0.017966708
198	0xbbbfe099	-0.0058556315
199	0x3be68b48	0.0070356466
200	0xbc419886	-0.01181615
201	0x3d734294	0.059389666
202	0xbd25f4cf	-0.04051667
203	0xbd3fa47c	-0.046787724
204	0x3cb7f350	0.022454888
205	0xbc82f538	-0.01598607
206	0xbc0c9fd0	-0.008583024
207	0xbd842ed0	-0.06454241
208	0x3c265ed2	0.010154443
209	0xbd8f1ea0	-0.06988263
210	0xbc7d9afd	-0.015478847
211	0xbd7a5ba3	-0.061122548
212	0xbbdaaabe	-0.006673186
213	0xbd18a6f0	-0.03726858
214	0xbd57b41c	-0.052662
215	0x3d8716fa	0.06596179
216	0x3c45ede1	0.0120806405
217	0xbc0b02be	-0.0084845405
218	0x3c3638d1	0.0111219445
219	0x3c39fa91	0.011351244
220	0x3b954106	0.0045548705
221	0xbc372df1	-0.011180387
222	0x3d0af570	0.033925474
223	0x3bb4e1fe	0.0055201044
224	0x3cae0156	0.021240871
225	0x3d358407	0.044315364
226	0x3c337a7e	0.010954497
227	0xbd603f94	-0.054748133
228	0xbc8334f1	-0.016016455
229	0xbca43283	-0.020043617
230	0xbd06fa19	-0.032953355
231	0x3c4dc83c	0.012559947
232	0xbd17124d	-0.036882687
233	0x3d4ffe1e	0.050779454
234	0x3c2a5ec9	0.010398575
235	0xbb7c8605	-0.003853203
236	0xbc297a6e	-0.010344131
237	0x3d7a99a1	0.06118167
238	0xbc354644	-0.011064116
239	0x3c7107cc	0.014711332
240	0x3c64402c	0.013931315
241	0x3d69116c	0.05690138
242	0xbbfc5084	-0.007700028
243	0xbd064d10	-0.032788336
244	0xbc921e29	-0.017836647
245	0x3cac97bb	0.021068444
246	0xbd84e0ae	-0.06488167
247	0xbd8e4b09	-0.069479056
248	0x3d7102a4	0.05884041
249	0xbbdff176	-0.0068342043
250	0x3d4b8d94	0.049695566
251	0x3d7101cc	0.058839604
252	0xbd7a0263	-0.061037432
253	0x3bf80649	0.0075691086
254	0x3c683da7	0.014174855
255	0x3d5490d1	0.05189592
