GAN/generator_dist2_500.pt (torch, 648263 bytes, 10 tensors)

model.0.weight f4 [64, 130]
0	0x3d32d4db	0.043660026
1	0xbb6a9a07	-0.0035797374
2	0xbd47ab05	-0.04874708
3	0xbcb0e940	-0.021595597
4	0x3d4ccca4	0.049999848
5	0xb7bca029	-2.2485927e-05
6	0xbd9add1b	-0.07561704
7	0x3d8b4f13	0.068021916
8	0x3cc92afc	0.02455663
9	0x3c75dfe2	0.015006991
10	0xbd434930	-0.04767722
11	0xbb9e93ab	-0.0048393807
12	0xbd439727	-0.047751572
13	0x3d472080	0.04861498
14	0xbd587422	-0.052845128
15	0xbd43574b	-0.04769067
16	0xbcff1006	-0.03113557
17	0x3dab0653	0.083508156
18	0x3b0bbafd	0.002132117
19	0xbd924f9e	-0.07144092
20	0xbd93c196	-0.07214658
21	0x3d93a2ba	0.07208772
22	0x3d10d3a8	0.0353581
23	0xbc943648	-0.01809229
24	0x3c0dddb4	0.008658815
25	0x3d9b603e	0.07586716
26	0x3d30f445	0.043201704
27	0x3c354b80	0.011065364
28	0xbd93ae63	-0.07210996
29	0x3bd1a214	0.006397495
30	0x3a1e802f	0.00060463225
31	0xbd9888a5	-0.07447938
32	0xbcdf3130	-0.027245134
33	0x3d3ecc18	0.046581358
34	0x3caa2bd6	0.020772856
35	0xbd2ce7c8	-0.04221323
36	0x3d9eab47	0.07747512
37	0xbd89defa	-0.067319825
38	0x3da7a21b	0.08185216
39	0xbd69c745	-0.057074804
40	0x3c5fb564	0.013654087
41	0xbd5eb09d	-0.05436765
42	0xbd0156aa	-0.03157679
43	0x3c662149	0.014046022
44	0x3b359a7d	0.002771049
45	0x3983d673	0.00025146044
46	0xbd5af4e6	-0.05345621
47	0x3d5d6e23	0.054060113
48	0xbd030c18	-0.031993955
49	0x3cdf9e56	0.02729718
50	0xbd59e6f2	-0.053198762
51	0xbd6f53ed	-0.058429647
52	0x3ca933fd	0.020654673
53	0xbd4503c9	-0.048099313
54	0x3d147afb	0.036250096
55	0x3d4f5367	0.050616648
56	0xbd78f815	-0.060783464
57	0x3d7822f8	0.060580224
58	0x3ca16402	0.019701008
59	0xbd4dd7db	-0.050254684
60	0xbcca0582	-0.02466083
61	0x3d565d14	0.05233486
62	0xbd84d376	-0.064856455
63	0xbc4ca7c3	-0.012491169
64	0x3d5c599a	0.05379639
65	0x3d3d29fa	0.04618261
66	0x3d861217	0.06546419
67	0xbb84bc48	-0.004050765
68	0x3d874272	0.0660447
69	0xbd443406	-0.047901176
70	0x3d5adddc	0.053434238
71	0xbc4f44ad	-0.012650651
72	0xbcdf4aa1	-0.027257266
73	0xbcd91f2a	-0.026504118
74	0x3daa11a5	0.08304147
75	0x3d7ffff8	0.06249997
76	0x3c685bd6	0.014182052
77	0x3d9af9c7	0.075671725
78	0xbd1b3c05	-0.037899036
79	0xbd61403a	-0.05499289
80	0xbda7514c	-0.08169803
81	0x3cdb2b05	0.026753912
82	0xbab05c54	-0.001345525
83	0x3d98343a	0.074318364
84	0xbc3773c4	-0.011197034
85	0xbd79adb1	-0.06095666
86	0x3da596d4	0.08085409
87	0x3d43ecdd	0.047833312
88	0x3d81be2e	0.06335102
89	0xbd9da31d	-0.07697127
90	0x3bed925e	0.0072501143
91	0xbccaf0c0	-0.024773002
92	0x3ce68ec0	0.02814424
93	0xbce0da5c	-0.027447872
94	0x3d872293	0.065983914
95	0x3cc8c28a	0.024506826
96	0x3d8165de	0.06318258
97	0x3cc7a8f6	0.024372559
98	0xbd1f50d3	-0.03889544
99	0x3c263311	0.010144011
100	0xbcb1d023	-0.021705693
101	0xbd84d017	-0.064850025
102	0xbd19699c	-0.037454233
103	0xbd67c61e	-0.056585424
104	0xbcf3fd06	-0.029783737
105	0xbd07b07d	-0.033127297
106	0xbd84c960	-0.06483722
107	0x3d894b24	0.06703785
108	0xbd1a613e	-0.037690394
109	0xbd1ea334	-0.03872986
110	0x3d081edc	0.033232555
111	0x3dad575c	0.08463928
112	0xbdadea96	-0.08492009
113	0xbb60e309	-0.003431501
114	0x3d255e5a	0.040373184
115	0xbb8b5a54	-0.0042527113
116	0xbcf3ab34	-0.029744722
117	0x3a0a7b8f	0.0005282694
118	0x3da56f81	0.08077908
119	0xbc28d427	-0.010304487
120	0x3d0ea7ed	0.034828115
121	0xba56b736	-0.00081907527
122	0xbda1ce26	-0.07900648
123	0xbda6fd71	-0.08153809
124	0x3a543dfc	0.00080963946
125	0xbda02de3	-0.07821252
126	0xbd918d48	-0.071070254
127	0xbbbc0d1f	-0.005738869
128	0x3d239b27	0.039942887
129	0x3daaa39e	0.08331989
130	0xbd33a48b	-0.043858092
131	0x3d89afb7	0.06722968
132	0x3d16e2da	0.036837436
133	0x3d93c9e0	0.07216239
134	0xbc89c4b4	-0.016817428
135	0xbd4701f1	-0.048585836
136	0x3daf175d	0.08549378
137	0x3d8840ef	0.0665301
138	0x3d12d688	0.035849124
139	0x3d0a88da	0.033821918
140	0x3c8c32ba	0.017114032
141	0x3cafda00	0.021466255
142	0xbb223833	-0.0024752736
143	0x3daf3d0a	0.08556564
144	0x3d973e6a	0.073849514
145	0xbd7b93a5	-0.0614201
146	0xbd33fd29	-0.043942604
147	0xbd3b73d8	-0.045764774
148	0xbd99131c	-0.07474348
149	0x3d91198e	0.07084952
150	0xbd75d08d	-0.060013343
151	0x3da104a6	0.07862215
152	0x3bb279e5	0.00544666
153	0x3db542c6	0.08850627
154	0x3cd5fb25	0.026120732
155	0x3d9e7121	0.077364214
156	0xbd9b78b9	-0.075913854
157	0xbd72d807	-0.05928805
158	0x3cbd6d53	0.023123419
159	0x3d8999a4	0.06718758
160	0x3cdb8a3c	0.026799314
161	0xbd3fb7b3	-0.04680605
162	0xbda22842	-0.07917835
163	0x3dad590f	0.08464252
164	0x3d93ce84	0.07217124
165	0x3ca3bf81	0.019988777
166	0xbcab0cba	-0.020880092
167	0xbd9ff9cb	-0.07811316
168	0xbd3eb018	-0.046554655
169	0x3d3fec81	0.046856407
170	0x3da6b2ac	0.08139548
171	0x3d2b6718	0.041846365
172	0xbcff90c0	-0.031196952
173	0x3d893dea	0.06701262
174	0xbcccefac	-0.025016628
175	0x3cf96126	0.030441832
176	0xbda46607	-0.08027273
177	0x3d02bd6e	0.031918935
178	0x3c3f7251	0.01168497
179	0x3d87ce0d	0.06631098
180	0xbcd0881c	-0.025455527
181	0xbd845bb1	-0.06462801
182	0x3d577c23	0.05260862
183	0x3cfd66af	0.030932752
184	0x3d889c1e	0.06670402
185	0x3c84fe8b	0.016234657
186	0x3d1b6d4c	0.03794603
187	0xbd3f37cf	-0.046684083
188	0xbd3130fc	-0.043259606
189	0xbc8ce549	-0.017199175
190	0xbccd70c0	-0.025078177
191	0x3d94b897	0.0726177
192	0x3d5eb2d0	0.054369748
193	0x3ce7d679	0.02830051
194	0xbc79074d	-0.015199495
195	0x3d509aa7	0.050928738
196	0x3d4b0614	0.049566343
197	0xbd260606	-0.04053309
198	0x3d2ab809	0.041679416
199	0x3ba77613	0.005110511
200	0x3d576b15	0.052592356
201	0xbd1901ab	-0.037355106
202	0x3d593632	0.0530302
203	0xb9f262a8	-0.00046231342
204	0x3d7b0c8e	0.06129127
205	0x3d525173	0.051347207
206	0xbd9f59e4	-0.07780817
207	0x3c9582d5	0.018250862
208	0xbd9d560f	-0.0768243
209	0x3ccf7067	0.025322152
210	0xbbc98450	-0.006149806
211	0xbd3f6f4b	-0.046736997
212	0x3d89bf22	0.06725909
213	0x3d0c8120	0.03430283
214	0xbc87f960	-0.016598403
215	0x3d12e80e	0.035865836
216	0xbc87b991	-0.016567977
217	0xbd3b78c2	-0.04576946
218	0xbcc7e2d4	-0.024400152
219	0xbca7002f	-0.02038583
220	0xbc2aa98b	-0.010416399
221	0xbcd58679	-0.026065098
222	0xbca23a6e	-0.019803252
223	0x3d9bd30b	0.076086126
224	0xbdaf6a44	-0.085651904
225	0xbd934c8d	-0.07192335
226	0xbd8fcd07	-0.07021528
227	0xbd6b22d6	-0.05740627
228	0xbd1662c4	-0.036715284
229	0xbc572827	-0.013132132
230	0x3c2b4d34	0.010455418
231	0xbd832ec7	-0.064054064
232	0xbcbd5a9f	-0.0231145
233	0x3d6dff38	0.058104724
234	0xbba359c1	-0.0049850647
235	0x3cab1172	0.020882342
236	0xbda48114	-0.08032432
237	0xbd4c757e	-0.049916737
238	0x3cb24635	0.021761993
239	0x3ce0a475	0.02742217
240	0x3d4be905	0.04978277
241	0x38cd22a3	9.781613e-05
242	0x3d9c527e	0.07632922
243	0x3b9e7209	0.0048353714
244	0xbd831592	-0.064005986
245	0x3bcbe238	0.0062220357
246	0xbc927704	-0.017879017
247	0x3d59944c	0.053119943
248	0xbcdff594	-0.02733878
249	0x3d1616af	0.036642727
250	0x3c6c0c0c	0.014407169
251	0x3cd24fc9	0.02567281
252	0x3d6fda93	0.058558058
253	0x3bcc8210	0.0062410906
254	0x3ce305bc	0.027712695
255	0xbcbf7818	-0.023372695

model.0.bias f4 [64]
0	0xbd4b303e	-0.049606554
1	0xbcf16cbf	-0.0294708
2	0xbb224c8f	-0.002476487
3	0x3c74b8f8	0.014936678
4	0xbbe17541	-0.006880433
5	0xbd5fe13c	-0.05465816
6	0x3d00a473	0.03140683
7	0xbd9c048d	-0.076180555
8	0xbd4a3ea5	-0.04937615
9	0xbd88bc05	-0.06676487
10	0xbbca3e81	-0.006172002
11	0xbd512159	-0.051057193
12	0x3d5b1708	0.05348876
13	0xbd5dae63	-0.054121386
14	0x3ccc0397	0.024904056
15	0xbd04ff07	-0.032469776
16	0xbd3c3e1b	-0.045957666
17	0xbd9e9b42	-0.07744457
18	0xbd83c6f8	-0.06434435
19	0x3d8faf4c	0.07015857
20	0x3d221dce	0.039579205
21	0xbcb104e6	-0.021608781
22	0xbda410cc	-0.08011016
23	0x3d157a10	0.03649336
24	0x3c78782f	0.015165373
25	0x3db46041	0.088074215
26	0xbda5f5cd	-0.081035234
27	0x3db464ae	0.088082656
28	0x3d2ed175	0.042680223
29	0xbd4605fc	-0.04834555
30	0xbd7b5025	-0.06135573
31	0x3d638a68	0.055551916
32	0xbd85801a	-0.06518574
33	0xbc2d519b	-0.010578538
34	0x3d8e6a37	0.069538526
35	0xbcb1e00f	-0.021713285
36	0x3d374c27	0.04475036
37	0x3c8f0822	0.017459933
38	0x3d8d14b9	0.06888718
39	0x3c37e28e	0.011223448
40	0xbd7e340f	-0.062061366
41	0x3dc70767	0.09718209
42	0x3d0caacd	0.034342576
43	0xbd2ba044	-0.041900888
44	0xbce703c5	-0.02820004
45	0x3d1f0abf	0.038828608
46	0x3da26bcb	0.07930716
47	0x3d98169e	0.07426189
48	0xbbc82cc0	-0.0061088502
49	0x3c0d5961	0.008627267
50	0x3d4d8981	0.050179962
51	0xbcfca33b	-0.030839553
52	0xbd8d8505	-0.06910137
53	0xbcb87919	-0.022518681
54	0x3ccc760b	0.024958631
55	0x3da70a28	0.08156234
56	0x3da438fa	0.0801868
57	0xbd80a6b1	-0.06281794
58	0x3d8664b7	0.065621786
59	0xbada0d9a	-0.0016636134
60	0xbceec3d5	-0.029146114
61	0xbd99b15c	-0.07504532
62	0x3d39964a	0.045309342
63	0x3d85fb5b	0.06542083

model.3.weight f4 [128, 64]
0	0xbd4d9453	-0.05019028
1	0xbd80cef2	-0.06289472
2	0x3d66fc54	0.056392983
3	0x3c77f96f	0.015135153
4	0xbd6c4894	-0.057686403
5	0xb972cb67	-0.00023154692
6	0xbdc54a3d	-0.096333005
7	0x3df584e0	0.119882345
8	0xbdce0cab	-0.1006101
9	0xbda5fd26	-0.08104925
10	0xbda36eef	-0.07980143
11	0xbd2e470b	-0.04254822
12	0x3d15b268	0.036547095
13	0xbd74d833	-0.059776496
14	0x3e053267	0.13007508
15	0xbe06e7a6	-0.13174304
16	0x3e09de90	0.13463807
17	0x3dbb418e	0.09143363
18	0x3db2f586	0.08738236
19	0xbd8eb925	-0.06968907
20	0xbd2875eb	-0.04112808
21	0x3daacda4	0.08340004
22	0xbd543a53	-0.051813435
23	0x3dd6a390	0.10480416
24	0x3abfe164	0.0014639315
25	0x3c6c1d1b	0.014411236
26	0x3ccca510	0.024981052
27	0x3cd0b2f9	0.025475966
28	0x3d9b35e0	0.07578635
29	0xbab07e97	-0.0013465461
30	0x3cdbee20	0.026846945
31	0xbc863742	-0.01638377
32	0xbcad4fa5	-0.021156142
33	0x3d60cd0b	0.054883044
34	0xbc580a7f	-0.013186096
35	0xbd9b1f62	-0.07574345
36	0x3c327b14	0.010893602
37	0x3ce3c4fe	0.027803894
38	0xbd847849	-0.06468255
39	0xbd64eb60	-0.055888534
40	0xbd485968	-0.04891339
41	0xbd37fff8	-0.044921845
42	0x3d29da09	0.0414677
43	0xbbaf5a6f	-0.0053513567
44	0xbda20341	-0.07910777
45	0xbdb4c5a2	-0.08826758
46	0x3dcbe87b	0.099564515
47	0xbbd2f927	-0.0064383927
48	0xbd071e10	-0.032987654
49	0x3dceb2f9	0.1009273
50	0xbd6f94c5	-0.058491487
51	0x3cd119f7	0.025525076
52	0x3d7088ea	0.05872432
53	0x3dbc1b4f	0.09184896
54	0x3da4257a	0.080149606
55	0xbdba1936	-0.0908684
56	0x3dae240c	0.08502969
57	0x3db3981f	0.08769249
58	0x3ddd8dd5	0.10818068
59	0xbdfe0c96	-0.12404744
60	0xbe016fcb	-0.12640302
61	0xbd8f5f4c	-0.07000598
62	0x3dc819e2	0.09770562
63	0xbd90b9a3	-0.070666574
64	0x3bc557b6	0.006022419
65	0xbdedc4a6	-0.11609773
66	0xbd199678	-0.037497014
67	0x3c30b673	0.010785687
68	0x3dd7c0d6	0.105348274
69	0xbc84cf0f	-0.016212014
70	0x3d8aa9bf	0.06770658
71	0x3db4f0c8	0.08834988
72	0xbdc7d5dc	-0.09757587
73	0xbca1eaab	-0.019765219
74	0xbccf6af5	-0.025319556
75	0xbcd9da84	-0.026593454
76	0xbcb3be52	-0.021941338
77	0x3d90d36c	0.070715755
78	0xbda6a0c1	-0.0813613
79	0x3c193dbc	0.0093530975
80	0x3e13fe36	0.14452443
81	0xbddee211	-0.108829625
82	0x3d6bdf45	0.057585973
83	0x3d1ff744	0.03905417
84	0x3e1a79eb	0.1508557
85	0x3d269ee2	0.040678866
86	0xbdc7dc9d	-0.097588755
87	0x3a55fa9d	0.00081626495
88	0x3dccf07a	0.10006805
89	0x3c899407	0.016794218
90	0x3b9d15fb	0.00479388
91	0xbde0296b	-0.109454
92	0xbc18a874	-0.009317506
93	0xbcc2c67f	-0.023776291
94	0xbdb949d8	-0.09047288
95	0x3daca233	0.084293745
96	0x3dcf18c4	0.101121455
97	0xbdc631d4	-0.09677473
98	0x3e016513	0.12636213
99	0x3dc1e51d	0.09467528
100	0x3e0468ad	0.12930556
101	0x3d667e08	0.056272537
102	0xbdfe2d53	-0.12410989
103	0xbdbd2640	-0.09235811
104	0xbd23fb9a	-0.040034868
105	0x3dbac304	0.091192275
106	0xbe0c90b9	-0.13727082
107	0xbd5787b3	-0.052619647
108	0xbe023a0f	-0.1271746
109	0x3b8cd5c7	0.004297945
110	0xbd05251a	-0.032506086
111	0x3d196e83	0.037458908
112	0x3d508748	0.050910264
113	0xbd954cb3	-0.0729002
114	0x3b26f1e3	0.0025473766
115	0x3bf03072	0.007329994
116	0xbdb9d526	-0.09073858
117	0xbd641660	-0.0556854
118	0xbe07eb21	-0.13273288
119	0x3d457b65	0.04821338
120	0xbd8ed88f	-0.06974899
121	0x3d97367b	0.07383438
122	0xbdd84b66	-0.10561256
123	0xbe055c7b	-0.1302356
124	0xbdb7e7fb	-0.08979794
125	0xbd8294a3	-0.063760065
126	0x3da9d29f	0.08292126
127	0xbe1584e6	-0.14601478
128	0xbcea64d7	-0.028612537
129	0xbdc1c67d	-0.09461687
130	0x3b053199	0.0020323752
131	0x3e099e3a	0.13439265
132	0xbd44ecd5	-0.048077423
133	0xbd786f30	-0.06065291
134	0x3de3eadb	0.111287795
135	0xbd9a9876	-0.07548611
136	0x3d77eb73	0.060527276
137	0x3ddf0941	0.10890437
138	0xbdae17f2	-0.08500661
139	0x3de4b356	0.11167018
140	0x3cc0ca4a	0.023533959
141	0x3db7c950	0.08973944
142	0xbdae0422	-0.08496882
143	0xbd4dd332	-0.05025024
144	0x3e0e6537	0.13905798
145	0x3d3a4f76	0.045485936
146	0x3da96516	0.08271234
147	0x3cd14481	0.02554536
148	0x3d0f9964	0.035058394
149	0xbd2102d9	-0.039309356
150	0xbdb7da60	-0.089771986
151	0x3dee5a5e	0.1163833
152	0x3d3a5e01	0.045499805
153	0xbce35b9d	-0.027753646
154	0xbde1f6ee	-0.11033426
155	0x3d957312	0.072973385
156	0x3d8407e3	0.06446817
157	0xbba25404	-0.004953863
158	0xbd08c4be	-0.033390753
159	0x3d3214ce	0.043476872
160	0x3d3c3745	0.045951147
161	0xbda622b4	-0.08112088
162	0xbc48bc78	-0.012251966
163	0x3dcc407b	0.09973236
164	0xba7f8344	-0.0009747038
165	0xbdde81da	-0.10864611
166	0x3db29db0	0.08721483
167	0xbcc63281	-0.024194004
168	0xbdb74aa1	-0.08949781
169	0xbc80178d	-0.01563623
170	0x3b40fa87	0.00294462
171	0x3d925a43	0.07146122
172	0xbdd8830b	-0.105718695
173	0xbd6a0e2e	-0.05714243
174	0x3d809d6f	0.06280028
175	0x3d89d404	0.06729892
176	0xbe05d818	-0.13070714
177	0xbdf92fc1	-0.121673115
178	0x3d975c3b	0.073906384
179	0x3d139adf	0.03603637
180	0xbdb40cd6	-0.08791511
181	0x3d815790	0.06315529
182	0xbdbfb2d0	-0.09360278
183	0xbdf4f291	-0.11960328
184	0x3d95c2da	0.073125556
185	0xbe07a26f	-0.13245557
186	0xbd1dab4c	-0.03849344
187	0x3d77e3a8	0.060519844
188	0xbdcf6599	-0.101268
189	0x3dc1ba67	0.094593816
190	0xbde40e17	-0.111355
191	0xbd671920	-0.056420445
192	0x3d80a380	0.06281185
193	0xbd1db3a1	-0.038501386
194	0x3d9ff88b	0.07811078
195	0xbd96f8bf	-0.07371663
196	0x3d39fba9	0.045406017
197	0xbcedaa3c	-0.029011838
198	0x3d120551	0.0356496
199	0xbc8bb995	-0.017056266
200	0xbbae9e6f	-0.0053289453
201	0x3dc17fda	0.09448214
202	0xbe04a67f	-0.12954138
203	0x3dc14230	0.094364524
204	0x3c194f4c	0.009357285
205	0xbc5b982d	-0.013402981
206	0xbdd86d5c	-0.10567734
207	0x3d370119	0.04467878
208	0x3d3f9f1b	0.046782594
209	0x3d839b6d	0.064261295
210	0xbdccd3e4	-0.100013524
211	0x3c53ba7c	0.012922879
212	0xbd28fec5	-0.041258592
213	0xbdb3ec25	-0.08785275
214	0x3d4e1890	0.050316393
215	0xbd40fada	-0.04711423
216	0xbdd6984e	-0.104782686
217	0x3d38522d	0.045000244
218	0x3db615b4	0.08890858
219	0xbd47f157	-0.048814144
220	0x3dafc797	0.085829906
221	0x3d2e5e90	0.04257065
222	0x3d4c9238	0.049944133
223	0x3def7197	0.116915874
224	0x3c269d1a	0.010169292
225	0x3cd4c9a8	0.025975063
226	0x3dbea7d3	0.09309354
227	0xbdffa2c4	-0.12482217
228	0xbbae9058	-0.0053272657
229	0x3d60b685	0.054861564
230	0x3dc312e5	0.09525088
231	0xbd09f174	-0.033677533
232	0xbb414964	-0.0029493207
233	0xbd856ee8	-0.06515294
234	0x3d0631ff	0.032762524
235	0xbe0c3106	-0.13690576
236	0x3c88703c	0.01665508
237	0xbcf910b3	-0.03040347
238	0x3e0e4664	0.1389404
239	0x3d3e66d2	0.046484776
240	0x3dc73258	0.09726399
241	0xbd2474a0	-0.040150285
242	0x3d84097e	0.06447123
243	0x3dccd4da	0.10001536
244	0x3dc28e9f	0.09499859
245	0xbdd8f726	-0.10594015
246	0xbd64224f	-0.05569678
247	0xbd8ef83f	-0.06980943
248	0x3c638c2c	0.0138884
249	0x3d2771ae	0.040879898
250	0x3dce2c45	0.100670375
251	0x3de8a9ff	0.11360549
252	0x3c0e42bf	0.008682906
253	0xbd34fa85	-0.044184227
254	0xbd9492e9	-0.072545834
255	0x3d9bf284	0.076146156

model.3.bias f4 [128]
0	0x3d6819fc	0.056665406
1	0xbd0d5fe5	-0.03451528
2	0xbd15429a	-0.03644047
3	0xbd49206f	-0.049103197
4	0xbd44e6f8	-0.04807183
5	0xbd828d15	-0.063745655
6	0xbe083581	-0.1330166
7	0xbc1a5526	-0.009419715
8	0xbd1b46d7	-0.037909355
9	0x3e049f78	0.12951458
10	0xbc16d0a6	-0.009205019
11	0x3d65e9fe	0.056131355
12	0xbcc5236f	-0.024064748
13	0x3d95d1d7	0.073154144
14	0xbd2d88ca	-0.04236678
15	0xbb45e1ba	-0.0030194358
16	0xbc4829ea	-0.012217024
17	0xbdb7a007	-0.0896607
18	0xbcafa237	-0.021439655
19	0xbe23ee31	-0.16008832
20	0x3c63f04f	0.0139122745
21	0xbdee22c3	-0.11627724
22	0x3d5a8a5e	0.053354613
23	0xbc211fad	-0.009834212
24	0x3dbfadcd	0.09359322
25	0xbdb4efb2	-0.08834781
26	0xbdd5045c	-0.10401222
27	0xbd269d22	-0.040677197
28	0xbd068a9e	-0.03284704
29	0x3de36472	0.11103143
30	0xbdd98a5f	-0.10622095
31	0x3d9ae922	0.07563998
32	0xbbb42112	-0.0054971064
33	0x3d81fff4	0.06347647
34	0xbc377b82	-0.01119888
35	0x3ddd1d26	0.10796575
36	0x3da02653	0.0781981
37	0x3de31851	0.11088622
38	0x3ddc1a26	0.10747175
39	0x3e04e9b6	0.12979779
40	0xbce87c32	-0.028379533
41	0xbda28480	-0.079354286
42	0xbe0b2402	-0.13587955
43	0xbd69c386	-0.05707123
44	0x3dacb5ba	0.08433099
45	0x3d7542ed	0.05987828
46	0x3c9b4e8b	0.01895835
47	0x3dac7165	0.08420066
48	0xbb2f4b86	-0.0026747896
49	0x3d0e2770	0.03470558
50	0xbd780509	-0.060551677
51	0x3d5b26f0	0.05350393
52	0xbd6cf469	-0.057850275
53	0xbd4b3b6f	-0.049617227
54	0xbd80d5cc	-0.062907785
55	0x3dc266ae	0.09492241
56	0xbdb514ef	-0.088418834
57	0xbc889f21	-0.016677441
58	0xbd23c0c3	-0.039978754
59	0xbd293392	-0.041308947
60	0x3cad8b7d	0.021184677
61	0x3d714959	0.05890784
62	0x3c0c1eff	0.008552312
63	0xbe1f1251	-0.15534331
64	0xbd2f5611	-0.04280669
65	0xbd11779a	-0.03551445
66	0x3d8f99ca	0.07011755
67	0xbd5f9e3e	-0.05459427
68	0xbdaafe4b	-0.08349284
69	0xbd4f7abb	-0.050654154
70	0xbd3852bf	-0.045000788
71	0x3b555b23	0.0032555542
72	0x3b8d3701	0.0043095355
73	0x3dca0220	0.098636866
74	0xbdd59282	-0.10428335
75	0x3c206558	0.009789787
76	0x3dd949fb	0.10609814
77	0xbdb57fd4	-0.08862272
78	0xbd5ef211	-0.05443007
79	0x3e03a9d1	0.12857749
80	0x3e0493ca	0.12947002
81	0x3cefb2c6	0.02926005
82	0xbd162d08	-0.03666404
83	0x3dc02a85	0.0938311
84	0x3d9ef832	0.07762183
85	0xbdfad5c6	-0.12247805
86	0x3e048d4f	0.1294453
87	0xbde7a4c4	-0.113107234
88	0xbd53d850	-0.051719964
89	0x3bc22250	0.0059245005
90	0xbdd2ae87	-0.10287195
91	0xbd24b899	-0.04021511
92	0xbc993ce5	-0.018705795
93	0x3ddf8426	0.10913877
94	0x3df43ab4	0.11925259
95	0xbd9e6fd2	-0.07736172
96	0xbc172729	-0.009225645
97	0xbb5b3cac	-0.0033452911
98	0x3db7ad78	0.089686334
99	0x3cf5d33e	0.030007955
100	0xbc387e7e	-0.011260627
101	0xbd2d7a17	-0.042352762
102	0xbd2babc9	-0.041911874
103	0x3dd665a7	0.104686074
104	0xbd5bbc53	-0.053646397
105	0x3da457e7	0.080245785
106	0xbcc21138	-0.023689851
107	0x3e0b9129	0.13629593
108	0x3dc6d412	0.09708418
109	0x3c3aa016	0.0113907065
110	0xbd381bdf	-0.044948455
111	0x3dee06b4	0.11622372
112	0xbdff8f68	-0.124785244
113	0xbd7f7ded	-0.06237595
114	0xbe0ffb98	-0.14060819
115	0xbc4b88b8	-0.012422733
116	0xbd83c812	-0.06434645
117	0x3ca5cd09	0.02023937
118	0x3df2b957	0.11851757
119	0x3d7a0768	0.06104222
120	0xbd695fc2	-0.056976087
121	0xbd89c636	-0.06727259
122	0x3c13da33	0.009024191
123	0xbd666cc4	-0.05625607
124	0x3da27635	0.079327025
125	0xbe04c023	-0.1296392
126	0xbd6cefb2	-0.05784578
127	0x3a0e4012	0.00054264173

model.6.weight f4 [512, 128]
0	0xbcb47dbc	-0.022032611
1	0xbcc9edf4	-0.024649598
2	0xbd3576c0	-0.044302702
3	0xbc87a06a	-0.016555984
4	0x3b875519	0.0041300175
5	0x3d180ffc	0.03712462
6	0x3d5cef38	0.053939074
7	0xbd4f72fd	-0.05064677
8	0x3d91bd92	0.07116236
9	0x3c8b4417	0.017000241
10	0xbdd1a610	-0.10236752
11	0x3da94759	0.082655616
12	0x3dcb373f	0.09922647
13	0x3d7f366e	0.062307768
14	0xbd05b9a6	-0.03264775
15	0x3c8d3906	0.017239105
16	0x3d7826b3	0.06058378
17	0xbb8a9719	-0.004229438
18	0xbdc3cb1d	-0.09560225
19	0x3d011a25	0.031519074
20	0xbd0a1f14	-0.033721045
21	0x3c63ea72	0.013910877
22	0xbd5eb00d	-0.054367114
23	0x3d7e0579	0.062016938
24	0x3d14ff49	0.03637627
25	0xbc2b9fa9	-0.010475078
26	0x3be6fe78	0.007049378
27	0xba71b9b8	-0.00092210947
28	0x3c67bf2f	0.014144703
29	0x3ba06c4c	0.0048957225
30	0x3db7d259	0.089756675
31	0x3c5ca563	0.013467166
32	0x3d428b36	0.047496043
33	0xbd6abdf8	-0.057310075
34	0x3c8f4869	0.017490583
35	0xbd0a621f	-0.03378498
36	0x3dae11d6	0.08499496
37	0xbd337bc4	-0.043819204
38	0xbd7fac84	-0.062420383
39	0xbdbed46f	-0.09317862
40	0xbc6614a9	-0.014043012
41	0xbdbac91f	-0.09120392
42	0xbc276cf2	-0.010218846
43	0xbd635acd	-0.055506516
44	0x3d04575b	0.03230987
45	0x3db9571f	0.0904982
46	0xbc4a57b8	-0.012350015
47	0xbd145943	-0.03621794
48	0x3d2140f9	0.039368603
49	0xbc9dac17	-0.019247098
50	0x3da9ee40	0.08297396
51	0x3d6e4ec8	0.0581806
52	0xbd202568	-0.039098173
53	0x3c7c3742	0.015394034
54	0xbd0a7a04	-0.03380777
55	0xbd156a42	-0.03647829
56	0x3d896cd0	0.067102075
57	0xbdb872e9	-0.090062924
58	0x3d82c622	0.06385447
59	0xbd712d09	-0.05888084
60	0x3ccf510a	0.025307197
61	0x3c12fab1	0.008970902
62	0xbd95c6ec	-0.07313332
63	0x3da09fdf	0.07842993
64	0x3da51441	0.08060504
65	0x3d829eba	0.06377931
66	0x3c02791d	0.007963446
67	0xbc551d19	-0.013007426
68	0x3c18a64f	0.009316995
69	0x3bde73a1	0.0067886864
70	0x3b845d1a	0.004039419
71	0x3d09bcfd	0.0336275
72	0x3d97534d	0.07388935
73	0xbcab3a9c	-0.02090197
74	0x3ceb84cd	0.028749848
75	0xbce53bff	-0.02798271
76	0xbd1ccb2d	-0.0382797
77	0xbd8ef7f4	-0.06980887
78	0x3dc17cf9	0.09447665
79	0xbbbb176a	-0.0057095783
80	0xbdb85f3f	-0.09002542
81	0xbd0ffb63	-0.03515185
82	0x3d30afc2	0.043136366
83	0xbd19997b	-0.037499886
84	0xbdb8229b	-0.089909755
85	0xbd0e71cd	-0.034776498
86	0xbdb91c6f	-0.090386264
87	0xbd537a3c	-0.051630244
88	0x3d36f167	0.044663813
89	0x3d45039c	0.048099145
90	0x3c96d9aa	0.018414337
91	0xbd7b9f9b	-0.06143151
92	0xbb90c2ce	-0.004417754
93	0x3d1d2259	0.038362835
94	0x3cdee4a0	0.027208626
95	0x3c0b387b	0.008497353
96	0x3d58c194	0.052918985
97	0x3ca85236	0.020547014
98	0x3d9126f4	0.07087508
99	0x3c616865	0.0137578
100	0xbb1bc637	-0.0023769268
101	0xbd15a791	-0.036536757
102	0xbd37a791	-0.04483754
103	0xbd8805d3	-0.06641736
104	0xbd9474a8	-0.07248813
105	0x3d950d88	0.072779715
106	0x3db6bc1b	0.08922597
107	0xbdcebc22	-0.10094477
108	0x3d302323	0.04300226
109	0x3da6aac1	0.081380375
110	0x3cccdbb3	0.025007105
111	0xbdb1c574	-0.08680239
112	0xbcd59a8a	-0.026074667
113	0x3d2aa44b	0.04166059
114	0xbd1fc3e7	-0.039005186
115	0x3d523c14	0.051326826
116	0x3d6564a4	0.05600418
117	0xbd2aed01	-0.04172993
118	0xbd303d53	-0.043027233
119	0xbd310e08	-0.043226272
120	0x3d0a82f8	0.033816308
121	0xbc0745b0	-0.008256361
122	0x3db280ca	0.08715971
123	0xbd875c3d	-0.0660939
124	0xbadb0845	-0.0016710839
125	0x3d6a4473	0.057194185
126	0xbd0a9303	-0.033831608
127	0xbbad0db5	-0.005281175
128	0xbcec70ff	-0.028862474
129	0xbd3bbce0	-0.045834422
130	0x3d99c5dd	0.075084426
131	0xbcfca621	-0.030840935
132	0x3d9eaa24	0.077472955
133	0xbda3250a	-0.07966049
134	0x3d9eb6b9	0.07749695
135	0xbd0084bb	-0.03137658
136	0xbda74afa	-0.081685975
137	0xbd3c5cbd	-0.04598688
138	0x3cd9572d	0.026530826
139	0x3db5589f	0.08854794
140	0x3ddf6ac4	0.10909036
141	0x3d8bbcf0	0.06823146
142	0x3d572de3	0.052533995
143	0xbd444c15	-0.04792412
144	0x3d48274a	0.048865594
145	0x3d2cb659	0.042166088
146	0xbcc6eccb	-0.024282834
147	0xbc5378b0	-0.012907192
148	0xbda4c817	-0.080459766
149	0xbab11853	-0.0013511278
150	0x3d30bd94	0.043149546
151	0x3d9b4703	0.07581904
152	0xbcc90fcd	-0.024543667
153	0x3cc3c85c	0.02389925
154	0x3ca43a4b	0.020047328
155	0xbd4461b8	-0.047944754
156	0x3d3714bb	0.044697504
157	0xbb3af539	-0.0028527512
158	0x3d9d0a6d	0.07668004
159	0xbd624336	-0.05523988
160	0xbd8cd380	-0.06876278
161	0x3cd60ebd	0.026130075
162	0xbd8ddf54	-0.06927362
163	0xbc22ead3	-0.009943682
164	0x3d214f5a	0.039382316
165	0x3d077c93	0.033077788
166	0xbdbf482c	-0.093399376
167	0xbb5f0677	-0.0034030953
168	0x3da5d9e0	0.08098197
169	0xbd98c786	-0.07459931
170	0x3d85723f	0.06515931
171	0xbd2d3c36	-0.04229375
172	0x3c2cda5e	0.01055011
173	0x3c222e43	0.009898725
174	0x3cf9e4d2	0.030504618
175	0x3b08acdc	0.0020854985
176	0x3dc4e56e	0.09614073
177	0x3c93da42	0.01804841
178	0x3d01817d	0.03161763
179	0x3d943e32	0.07238425
180	0x3c2842c9	0.010269829
181	0x3d52aa97	0.05143222
182	0x3d3bf116	0.045884214
183	0xbd6d03e9	-0.057865057
184	0x3d801137	0.062532835
185	0xbda1690e	-0.07881366
186	0xbd18f7c2	-0.037345655
187	0x3cfd40ab	0.030914625
188	0x3cf7a3f5	0.030229548
189	0x3b8615fc	0.004091976
190	0xbae28bb0	-0.0017284062
191	0x3d2e289e	0.042519204
192	0x3d5fcf18	0.05464086
193	0xbb140926	-0.002258846
194	0xbb802168	-0.0039102323
195	0xbdb16cfe	-0.08663367
196	0x3ba053c1	0.0048927967
197	0xbd93aa83	-0.07210257
198	0xbdbc6d72	-0.092005625
199	0xbdbc456d	-0.091929294
200	0x3da05b15	0.078298725
201	0xbd9aadf4	-0.0755271
202	0xbbf3d6e3	-0.007441388
203	0xbd22cc65	-0.039745707
204	0x3d3a6245	0.045503873
205	0xbd60223a	-0.05472014
206	0x3d95bfe4	0.07311991
207	0x3d3d655a	0.046239235
208	0xbcb23f0b	-0.021758577
209	0xbcd66ee3	-0.026175922
210	0x3d893ee8	0.067014515
211	0xbc26f5a3	-0.0101904
212	0x3bfc133d	0.007692723
213	0xbc807d67	-0.015684796
214	0xbc38f9f6	-0.011290064
215	0x3d30ddef	0.043180402
216	0xbbc19e37	-0.0059087533
217	0xbd91d714	-0.07121101
218	0x3db3bfe2	0.08776833
219	0x3dcbb3a6	0.099463746
220	0x3cec49d1	0.028843792
221	0xbd95bcc9	-0.073113985
222	0x3d5ea5bc	0.054357275
223	0xbd8079dc	-0.06273243
224	0x3c6cbedc	0.014449801
225	0x3d9a1432	0.07523383
226	0x3d51d75a	0.051230766
227	0xbc68a5f4	-0.014199723
228	0x3c8f5a55	0.017499128
229	0x3d481a9e	0.04885351
230	0xbd4552fd	-0.048174847
231	0x3cdc87bd	0.026920194
232	0x3d66dc91	0.056362692
233	0xbd62b248	-0.055345803
234	0x3db31b25	0.08745412
235	0x3d1f5b97	0.038905706
236	0xbcd6e74d	-0.02623334
237	0x3d05952b	0.03261296
238	0x3d253b0d	0.04033952
239	0xbd93fa72	-0.07225503
240	0xbc961ad1	-0.018323334
241	0xbd59bb35	-0.05315705
242	0x3d89e0e4	0.067323476
243	0x3d87f8ec	0.06639275
244	0xbd840dba	-0.06447931
245	0x3d6a3b80	0.05718565
246	0xbd02b7a8	-0.03191343
247	0xbd5f93bf	-0.05458426
248	0x3d8a2b9c	0.06746599
249	0x3b9eaa7b	0.0048421
250	0x3cc158f0	0.023601979
251	0x3c8a22fc	0.016862385
252	0xbdc14318	-0.09436625
253	0x3dbd0d49	0.092310496
254	0xbc893cee	-0.016752686
255	0xbc2695c6	-0.010167545

model.6.bias f4 [512]
0	0xbd903ea4	-0.07043198
1	0xbce16f17	-0.027518792
2	0xbcef9900	-0.02924776
3	0xbd398522	-0.04529298
4	0x3cc27072	0.023735259
5	0x3d5f562c	0.05452554
6	0xbd4607b8	-0.048347205
7	0x3d5cf23b	0.053941946
8	0xbc42067c	-0.011842366
9	0x3db9d461	0.09073711
10	0x3d280384	0.041018978
11	0xbd8c555b	-0.06852218
12	0x3da1c17b	0.078982316
13	0x3d090d6b	0.033460062
14	0x3b38594f	0.0028129404
15	0x3da61054	0.08108583
16	0xbd64c39d	-0.055850614
17	0x3dab0c87	0.08351999
18	0x3de797fa	0.11308284
19	0x3dbab881	0.091172226
20	0x3d04c335	0.032412726
21	0x3ca54c23	0.020177906
22	0xbdb3558f	-0.087565534
23	0xbd34a416	-0.044101797
24	0xbd79d38f	-0.060992774
25	0xbd2d49d4	-0.042306736
26	0xbda0083a	-0.07814069
27	0x3cb7ce97	0.022437377
28	0x3dc0c382	0.0941229
29	0xbd649c21	-0.05581296
30	0x3cfc9be5	0.030836055
31	0x3cae6b45	0.021291384
32	0xbd57c61a	-0.05267916
33	0xbddef711	-0.10886968
34	0xbca29bf4	-0.019849755
35	0x3c9ef870	0.019405574
36	0xbd8f4f17	-0.06997507
37	0x3d1ad047	0.037796285
38	0xbd87b9aa	-0.066272095
39	0xbd920b28	-0.07131034
40	0x3ce2e28f	0.027695922
41	0x3bf98f34	0.007615948
42	0x3d7cc55e	0.06171166
43	0xbcbf2cde	-0.023336824
44	0x3d8d80c7	0.06909328
45	0x3cde97fd	0.027172083
46	0xbda3df92	-0.08001627
47	0x3dcb7ba3	0.09935691
48	0xbdeaa13a	-0.11456533
49	0x3d4b735a	0.049670555
50	0x3cb28107	0.02179004
51	0xbd11caf0	-0.035593927
52	0xbd7ab046	-0.061203264
53	0xbcad1bba	-0.021131385
54	0xbd71a875	-0.058998544
55	0xbc18cdac	-0.00932638
56	0xbd54fc25	-0.051998276
57	0xbd3aa10f	-0.045563754
58	0x3debf590	0.11521447
59	0x3b23e7fd	0.0025010102
60	0xbd696bef	-0.0569877
61	0x3d0881ef	0.03332704
62	0xbdbfa3f2	-0.09357442
63	0xbd5e220e	-0.054231696
64	0x3d2e50a4	0.042557374
65	0xbca7ae2c	-0.020468794
66	0xbd991cb4	-0.07476178
67	0x3cbc2312	0.022965942
68	0xbdd55572	-0.10416688
69	0x3c6b37c0	0.014356554
70	0x3cf6b7db	0.030116966
71	0xbc6aac90	-0.014323369
72	0x3d86f743	0.0659013
73	0xbd25f8d5	-0.040520508
74	0xbd377008	-0.044784576
75	0x3ca49901	0.02009249
76	0xbddba778	-0.107253015
77	0xbc998a56	-0.018742722
78	0xbc91753b	-0.017756095
79	0x3b0f16fa	0.0021833763
80	0xbc41fda3	-0.011840257
81	0x3ca55c2c	0.020185553
82	0x3cfbc09f	0.030731497
83	0xbdbee079	-0.093201585
84	0xbbb55c9a	-0.0055347206
85	0xbd4d768e	-0.05016189
86	0x3cbf20d6	0.023331087
87	0xbcae9a05	-0.021313677
88	0xbd15496d	-0.036446977
89	0xbdcc2d78	-0.0996961
90	0x3d6a4276	0.05719229
91	0x3ddb3d18	0.10705012
92	0x3d502688	0.050817996
93	0xbcae4c97	-0.021276755
94	0xbda7a455	-0.08185641
95	0xbc04f4cf	-0.008115008
96	0xbd5f3e7e	-0.054502957
97	0x37ad7e0d	2.0681904e-05
98	0x3dd58b9f	0.10427021
99	0xbd9f9c82	-0.07793523
100	0xbd6f87b5	-0.05847903
101	0xbcac3084	-0.021019228
102	0xbc6a4be3	-0.014300319
103	0x3d812374	0.0630559
104	0xbcb87311	-0.022515805
105	0xbcbc70e3	-0.023003047
106	0xbd17841d	-0.036991227
107	0x3b048292	0.0020219428
108	0xbdba2b92	-0.09090342
109	0xbd2f1b88	-0.042750865
110	0x3ca44afe	0.02005529
111	0xbc57c783	-0.013170126
112	0xbd38b97a	-0.04509876
113	0x3d28e637	0.041235175
114	0x3d20af0a	0.03922943
115	0xbdb4a23a	-0.08820005
116	0x3c0cc214	0.008591194
117	0xbcc2e15b	-0.023789098
118	0x3d06ba04	0.032892242
119	0xbd1f617a	-0.03891132
120	0x3d63216a	0.055451788
121	0xbba5f379	-0.0050644246
122	0xbd667768	-0.05626622
123	0xbdb9d975	-0.0907468
124	0xbd959063	-0.0730293
125	0x3da3b4b1	0.079934485
126	0xbda05cb7	-0.07830184
127	0x3d8a0d0c	0.0674077
128	0x3d683307	0.05668929
129	0xbcc783b7	-0.024354799
130	0xbd4c7605	-0.04991724
131	0x3cc4b560	0.024012268
132	0xbbd9fd53	-0.006652513
133	0x3d7e70f2	0.06211943
134	0x3db8068f	0.08985626
135	0x3d01c251	0.031679455
136	0xbdb54eff	-0.08852958
137	0x3bfe19d0	0.007754542
138	0x3d990ef1	0.07473553
139	0x3c5aa8f1	0.013345943
140	0x3bf4457f	0.0074545736
141	0x3d88da7f	0.066823
142	0xbd178455	-0.036991436
143	0x3ddced81	0.10787488
144	0x3c07dc58	0.00829228
145	0x3d5d2c04	0.053997055
146	0x3c7a80e2	0.015289517
147	0xbde4db2f	-0.111746185
148	0xbcbce544	-0.023058541
149	0x3a93079b	0.0011217477
150	0x3cf23af2	0.029569123
151	0x3d8f10cc	0.069856256
152	0xbd7eadc5	-0.06217744
153	0x3d662119	0.056183908
154	0xbd2dc399	-0.042422865
155	0xbd65dd0e	-0.056119017
156	0x3d093fbf	0.03350806
157	0xbd082b0d	-0.03324418
158	0x3c5a216b	0.0133136315
159	0xbd9e16aa	-0.077191666
160	0x3da477ab	0.08030637
161	0x3c319814	0.010839481
162	0x3d881d5a	0.06646223
163	0x3d32fe92	0.04369981
164	0x3d56d0c1	0.052445177
165	0x3da21a56	0.079151794
166	0xbd1276e9	-0.035757933
167	0xbdd900a2	-0.10595824
168	0xbc6f155c	-0.014592495
169	0xbd77386c	-0.060356542
170	0x3ba9794c	0.0051719304
171	0xbd3387ee	-0.043830805
172	0xbce1555f	-0.027506528
173	0x3daf0db4	0.085475355
174	0xbcc529ec	-0.024067841
175	0x3d8303ea	0.06397231
176	0xbd88a912	-0.066728726
177	0xbdd330b9	-0.103120275
178	0x3b6451ee	0.0034838873
179	0xbcb3b0dc	-0.021934919
180	0x3c750252	0.0149541665
181	0x3c88ed8a	0.01671483
182	0x3cca976c	0.024730407
183	0xbb7a1ede	-0.003816537
184	0xbd26b6ee	-0.0407018
185	0xbcd3352c	-0.02578219
186	0xbd265e95	-0.040617544
187	0xbd815cac	-0.06316504
188	0x3de68bb7	0.11257117
189	0xbddc675a	-0.107619
190	0xbbee3a75	-0.007270152
191	0xbde27e18	-0.11059207
192	0x3dda7235	0.106663145
193	0x3d95a111	0.073061116
194	0x3db0cd7b	0.08632942
195	0x3cd0a955	0.025471369
196	0x3db7460a	0.08948906
197	0xbca27d7a	-0.019835223
198	0x3d8b859b	0.068125926
199	0x3d261105	0.040543575
200	0xbd957907	-0.07298475
201	0xbd1eb856	-0.038750015
202	0xbdd2ca77	-0.10292523
203	0x3c1e979a	0.009679699
204	0xbd803b98	-0.062613666
205	0x3d85d7a8	0.06535274
206	0x3da61026	0.08108549
207	0xbd36400a	-0.044494666
208	0xbcd74858	-0.026279613
209	0x3ccf7583	0.025324589
210	0xbd780886	-0.060555004
211	0xbc8f9b71	-0.017530175
212	0x3dc6958e	0.09696494
213	0x3d84536e	0.064612255
214	0xbd8ec6d4	-0.06971517
215	0x3d8c209d	0.06842158
216	0xbc14d2f4	-0.009083498
217	0xbd1fdda1	-0.03902972
218	0x3d6a08d3	0.05713732
219	0xbd83f549	-0.06443269
220	0xbd489823	-0.048973214
221	0xbc42d30c	-0.011891138
222	0x3d78d1a9	0.060746823
223	0x3d229f7a	0.03970287
224	0xbdaf0560	-0.08545947
225	0xbcea0557	-0.028567
226	0xbdaa0aba	-0.08302827
227	0xbd7c197e	-0.06154775
228	0x3d9b3ebe	0.075803265
229	0x3cce8341	0.025209071
230	0x3c902aa1	0.017598452
231	0xbd99d3c4	-0.07511094
232	0x3d7f24f3	0.062291097
233	0x3d27b1e7	0.040941145
234	0xbc58b78a	-0.013227353
235	0x3dbef9c3	0.09324982
236	0xbd12beb7	-0.03582641
237	0x3dd3147c	0.103066415
238	0x3dc8b077	0.09799283
239	0x3db1b4d9	0.08677072
240	0xbba65c7e	-0.005076944
241	0xbd895563	-0.06705739
242	0xbd3e81eb	-0.04651062
243	0x3bcf748d	0.0063310326
244	0x3d41d5e3	0.04732312
245	0xbcf76512	-0.030199561
246	0xbd552f07	-0.052046802
247	0xbd63128c	-0.05543761
248	0x3d7b3ca4	0.06133713
249	0x3a924c21	0.0011161604
250	0x3d9a5f63	0.07537725
251	0xbdb5b4d2	-0.08872379
252	0xbc9abb05	-0.018888006
253	0xbdc479d1	-0.09593547
254	0x3c0bc0a2	0.008529814
255	0xbc9ec4a9	-0.019380884

model.9.weight f4 [128, 512]
0	0xbbeaddce	-0.0071675545
1	0xbc91bbaf	-0.01778969
2	0xbd0925b9	-0.03348324
3	0x3d6a7593	0.057241034
4	0x3ce958a4	0.02848465
5	0x3c351e4d	0.011054588
6	0xbcaa50e4	-0.020790525
7	0x3c6b14d0	0.014348224
8	0x3c813783	0.01577354
9	0xbd4cc7e9	-0.049995337
10	0x3b7c6975	0.0038515006
11	0x3d7e0078	0.062012166
12	0xbcf070a8	-0.029350594
13	0xbcd35d54	-0.025801338
14	0x3b8f9856	0.0043821735
15	0xbca57817	-0.020198865
16	0x3d023f14	0.031798437
17	0xbd18374a	-0.037162103
18	0x3c1c730c	0.009548914
19	0xbba999ff	-0.0051758285
20	0x3cc60545	0.024172435
21	0xbb0c2621	-0.0021385031
22	0x3b93a6de	0.004505976
23	0xbd5f19d2	-0.054467984
24	0xbd035b03	-0.032069217
25	0x3d57dc3a	0.05270026
26	0x3d647ea4	0.055784836
27	0xbd3b21a1	-0.045686368
28	0xbd3b02d2	-0.045656987
29	0x3cae53d4	0.021280207
30	0x3bde1c45	0.0067782723
31	0xbc5bbdfd	-0.013411996
32	0x3baf6e58	0.00535373
33	0xbabc6326	-0.001437281
34	0x3d5d3eed	0.05401509
35	0xbc5c923f	-0.013462602
36	0x3cce83b7	0.02520929
37	0x3ae426f8	0.0017406633
38	0x3c84372a	0.016139586
39	0xbc1210ec	-0.008915167
40	0x3bb152d3	0.0054114847
41	0xbd07b7ef	-0.033134397
42	0x3c8fbc60	0.017545879
43	0x3d7dc308	0.061953574
44	0xbd00c83f	-0.03144097
45	0x3d4cf3a7	0.050037052
46	0x3d8e382f	0.0694431
47	0xbcd47517	-0.025934739
48	0xbc6bbf8e	-0.014388932
49	0x3cc05b5e	0.023481067
50	0x3c971040	0.018440366
51	0xbc4b5897	-0.012411258
52	0xbbca836a	-0.0061802166
53	0x3d0cda5d	0.034387935
54	0x3c9fe755	0.019519487
55	0x3d5fa994	0.05460508
56	0xbbbb61c3	-0.005718441
57	0xbd36bff1	-0.044616643
58	0xbc849f20	-0.016189158
59	0x3d549f27	0.051909592
60	0xbc7750df	-0.015094965
61	0x3d365c0b	0.044521373
62	0x3d36bd80	0.044614315
63	0x3b301eb5	0.0026873772
64	0xbd4f2576	-0.050572835
65	0xbd682b58	-0.05668196
66	0x3d70cf6a	0.058791555
67	0x3d07c312	0.033145018
68	0xbc9ec85b	-0.019382646
69	0xbd824078	-0.06359953
70	0x3c791a4a	0.015204022
71	0x3cf2156c	0.02955123
72	0xbd01171f	-0.03151619
73	0x3cc5849e	0.024111088
74	0x3b695078	0.0035600942
75	0xbc1e2de6	-0.009654498
76	0x3d4a3595	0.049367506
77	0xbd18f605	-0.037343998
78	0xbd26cfbb	-0.04072545
79	0x3c75cb80	0.015002131
80	0xbccbb5e5	-0.024867008
81	0xbd2f290e	-0.042763762
82	0xbc119d4c	-0.0088876
83	0xbb9135df	-0.0044314708
84	0xbccb9b0d	-0.024854207
85	0xbc5fdd69	-0.013663628
86	0x3d477c7f	0.048702713
87	0x3c8f05b1	0.017458769
88	0x3bc0539f	0.0058693434
89	0xbc2f0831	-0.010683105
90	0xbcec0dee	-0.028815236
91	0xbcc1a13e	-0.023636457
92	0xbcca66db	-0.024707248
93	0x3c839e63	0.016066736
94	0x3d493273	0.049120378
95	0x3c4646ea	0.012101868
96	0x3b35dcd2	0.0027750027
97	0xbca749fe	-0.020421024
98	0x3cc1ba1a	0.02364831
99	0x3c474c3d	0.012164173
100	0x3b53d57f	0.0032323299
101	0xbbfa1028	-0.0076313205
102	0xbc697937	-0.014250091
103	0x3d3391b8	0.04384014
104	0xbcb33e1f	-0.021880208
105	0x3c035837	0.0080166375
106	0x3d186e52	0.037214585
107	0x3c341f5e	0.010993807
108	0xbb2ef24d	-0.0026694715
109	0xbd52aded	-0.0514354
110	0xbd71147b	-0.058857422
111	0x3d402fc7	0.046920564
112	0x3b3692e1	0.0027858543
113	0x3c398493	0.011323112
114	0xbcaceb5d	-0.021108324
115	0x3c4a2ec0	0.012340248
116	0x3c9f216b	0.019425115
117	0xba62661c	-0.00086364313
118	0x3ca018df	0.01954311
119	0xbc6cebc5	-0.014460509
120	0x3c0086aa	0.007844606
121	0x3c7c20bb	0.015388663
122	0x3cc02f4d	0.023460055
123	0x3c92f10b	0.017937204
124	0x3b661218	0.0035106
125	0xbc844803	-0.01614762
126	0xbca0c148	-0.019623414
127	0xbc913259	-0.017724203
128	0xbcdcac4b	-0.026937624
129	0x3d1ddf91	0.038543288
130	0x3c8afc85	0.016966114
131	0xbaa21b3a	-0.0012367733
132	0xbd19702d	-0.037460495
133	0xbd22ac57	-0.039715137
134	0xbca37b38	-0.019956216
135	0x3cd7b849	0.026332991
136	0x3d4bfb4d	0.049800206
137	0x3c03afad	0.00803749
138	0xbd76033a	-0.06006167
139	0x3c0da7ee	0.008645995
140	0x3ccca344	0.024980195
141	0x3cfdfa66	0.031003188
142	0x3d390c10	0.04517752
143	0xbd1a6de7	-0.037702467
144	0xbbfc84b2	-0.007706248
145	0xbc2aead0	-0.01043196
146	0xbd02036e	-0.031741552
147	0x3d2dd1de	0.042436473
148	0x3cb2397f	0.021755932
149	0xbd3af291	-0.045641486
150	0x3cb2c7fe	0.02182388
151	0xb9d1d669	-0.00040023334
152	0xbc3ac5c4	-0.01139969
153	0x3c06625e	0.0082021635
154	0x3ca6ae44	0.020346768
155	0x3d327114	0.04356487
156	0x3d1b6705	0.037940044
157	0xbd1cd5c4	-0.0382898
158	0x3ca028e0	0.01955074
159	0x3c0e90c7	0.00870151
160	0x3b3bb3d3	0.002864112
161	0x3cb21386	0.021737825
162	0xbc85a808	-0.016315475
163	0x3c88e38c	0.016710065
164	0xbd117849	-0.035515103
165	0xbad24af1	-0.0016044063
166	0x3d2f031f	0.042727586
167	0x3c2913c0	0.01031965
168	0x3bca029c	0.006164862
169	0x3cf45d6f	0.029829709
170	0xbc406f70	-0.011745319
171	0xbc983468	-0.018579677
172	0xbc48abfc	-0.0122480355
173	0xbd021288	-0.031755954
174	0x3d55da41	0.052210096
175	0xbca87a10	-0.020566016
176	0x3d54b700	0.051932335
177	0x3d4dcb2a	0.05024258
178	0x3cd2bd3a	0.025724996
179	0x3c59df38	0.013297848
180	0xbc14f9e5	-0.009092783
181	0x3c6db3d1	0.014508204
182	0xbd5dca01	-0.054147724
183	0xbc359bb7	-0.011084489
184	0xbd335c11	-0.043788973
185	0xbc4c8e15	-0.012485047
186	0xbb619c75	-0.003442553
187	0x3d3045ef	0.043035444
188	0xbca1d1a9	-0.019753294
189	0x3c837c8f	0.016050605
190	0x3cae8a69	0.021306233
191	0x3c2d01cc	0.01055951
192	0xbd698e7a	-0.057020642
193	0xbc950f7d	-0.018195862
194	0x3c206e13	0.009791869
195	0x3d756fbd	0.059921015
196	0xbd480658	-0.048834175
197	0x3d27206b	0.0408024
198	0x3c636a6f	0.013880356
199	0xbd2ac4c7	-0.041691568
200	0x3c967131	0.01836452
201	0xbd33710d	-0.043808986
202	0x3bd5cc66	0.0065246103
203	0x3d5bb4a2	0.05363906
204	0xbb7d9a29	-0.0038696623
205	0x3d3f7c13	0.046749186
206	0xbd01ee28	-0.031721264
207	0x3d159b58	0.0365251
208	0xbc88db2c	-0.016706072
209	0x3d1c6095	0.038178045
210	0xbd4c2e12	-0.049848624
211	0x3c9bc880	0.019016504
212	0x3c138357	0.009003482
213	0x3b83600c	0.0040092524
214	0x3d358a37	0.044321265
215	0xbd7ef0c2	-0.062241323
216	0x3d2e6620	0.042577863
217	0x3d624967	0.055245783
218	0xbc9b8d5c	-0.018988304
219	0x3b77d9fd	0.003781914
220	0x3d41a555	0.047276814
221	0xbba7153b	-0.0050989664
222	0xbc0c0d30	-0.008548066
223	0xbd3782d4	-0.0448025
224	0x3d37f2e4	0.044909373
225	0xbc0a520e	-0.008442415
226	0x3d22eb35	0.039775092
227	0xbc1f64b7	-0.009728602
228	0xbc7d4dde	-0.0154604595
229	0xbd77f796	-0.06053885
230	0x3c74a63a	0.01493221
231	0x3d1e2fe6	0.0386199
232	0x3b8f174a	0.00436679
233	0x3c83b426	0.016077112
234	0xbbfd4fac	-0.007730445
235	0xbc4bc5a6	-0.01243726
236	0x3d623cda	0.055233814
237	0xbca9e656	-0.020739716
238	0xbd6e77c8	-0.0582197
239	0xbba60516	-0.0050665243
240	0xbce75559	-0.02823894
241	0x3cda0b86	0.026616823
242	0x3b9f458f	0.004860587
243	0xbb5c539c	-0.003361917
244	0x3c8b5eb2	0.017012928
245	0x3bfbfbce	0.0076899296
246	0x3d5e72a9	0.054308567
247	0xbc858046	-0.016296517
248	0xbd818280	-0.06323719
249	0xbb1a2abf	-0.0023524014
250	0xbd2ae7a8	-0.04172483
251	0x3a98974a	0.0011641767
252	0xbd1bf54d	-0.038075734
253	0x3d29d5f1	0.041463796
254	0xbd0508af	-0.032478984
255	0x3b21eba8	0.0024707112

model.9.bias f4 [128]
0	0x3b7918b5	0.0038009111
1	0x3c8f6ddf	0.017508445
2	0xbd345b8c	-0.04403262
3	0xbd03f5e3	-0.032216918
4	0xbd498944	-0.049203172
5	0x3d22b3f9	0.039722417
6	0x3d188035	0.037231643
7	0x3cebf80a	0.028804798
8	0x3c1d5b41	0.009604276
9	0x39fa0956	0.00047690672
10	0x3cd6554d	0.026163721
11	0xbc999132	-0.018745992
12	0xbcd9d5a4	-0.02659113
13	0xbd5a4bb8	-0.053294867
14	0x3d2c11eb	0.042009275
15	0xbd6574ca	-0.05601958
16	0xbbee49f4	-0.0072719995
17	0xbb805220	-0.00391604
18	0xbc964730	-0.018344492
19	0x3c3592e9	0.011082389
20	0xba4d9f8a	-0.00078439026
21	0xbd083724	-0.03325571
22	0x3b8bcb4b	0.004266178
23	0x3c487640	0.012235224
24	0xbb6f770f	-0.003653947
25	0xbcdb4788	-0.026767507
26	0x3d2a8c8e	0.04163795
27	0xbd33590c	-0.043786094
28	0x3d13ced7	0.03608593
29	0x3c3e8740	0.011628926
30	0xba6aedbd	-0.00089618174
31	0xbcf006e9	-0.02930017
32	0xbba122f1	-0.0049174954
33	0x3cfb8741	0.030704143
34	0x3c44503c	0.01198202
35	0x3b2d2fac	0.002642612
36	0x3ca049ae	0.019566383
37	0x3d6f57bc	0.05843328
38	0xbd1dcaa1	-0.03852332
39	0x3c8bb75b	0.017055204
40	0xbb9b5971	-0.004740887
41	0x3a1a1f2b	0.0005879278
42	0xbc7db99a	-0.015486145
43	0xbcd11dd5	-0.02552692
44	0xbc846ec7	-0.016166104
45	0xbc99e041	-0.01878369
46	0x3bfc79fe	0.0077049723
47	0xbb0807a1	-0.00207565
48	0x3c3a3c51	0.01136692
49	0x3d45c9ec	0.04828827
50	0x3d2e3ad8	0.042536587
51	0xbd57a29b	-0.052645307
52	0xbd8734a3	-0.066018365
53	0x3b3122c9	0.002702879
54	0x3ca37dc5	0.019957433
55	0x3ae07d0d	0.0017127112
56	0x3c26ceeb	0.010181169
57	0xbd0c2d17	-0.03422269
58	0x3cd6ad01	0.026205542
59	0x3a9ecf8a	0.0012116295
60	0xbc036fc8	-0.008022256
61	0xbbfae1c3	-0.0076563074
62	0x3d54cf8e	0.051955752
63	0xbce86c14	-0.028371848
64	0x3c89685e	0.016773399
65	0x3d2e5251	0.04255897
66	0x3d1ea8d9	0.038735244
67	0xbd2ce9ff	-0.042215344
68	0xbc94fbcc	-0.018186472
69	0x3cae9e10	0.021315604
70	0xbd28a4a8	-0.041172653
71	0xbd576bf4	-0.052593186
72	0x3bb3f996	0.0054923994
73	0x3d799d8a	0.060941257
74	0x3d54451d	0.051823724
75	0xbc40490a	-0.011736164
76	0x3c2ce51f	0.010552674
77	0x3d0f109a	0.03492794
78	0x3ba046a5	0.004891234
79	0x3c8dd3a2	0.017312828
80	0xbd482de7	-0.0488719
81	0xbd4f7cbf	-0.050656077
82	0x3d0a7feb	0.0338134
83	0xbceb3b5c	-0.028714828
84	0xbd43c0d8	-0.047791332
85	0xbd2b26dc	-0.041785106
86	0xbcef7ba1	-0.029233756
87	0xbc03d126	-0.00804547
88	0xbd02e163	-0.031953227
89	0x3c801c67	0.015638543
90	0x3d1b8726	0.037970684
91	0xbb7d16c8	-0.0038618315
92	0xbd5b15cd	-0.053487588
93	0xbca2b8ca	-0.019863505
94	0x3c2137a7	0.009839929
95	0xbcbf7e9b	-0.0233758
96	0x3c9e764c	0.019343518
97	0x3d4df68a	0.050283946
98	0xbc3fd2a6	-0.011707937
99	0x3971b090	0.00023049326
100	0xbd335f13	-0.04379184
101	0x3cab1fe4	0.02088923
102	0xbd1fae72	-0.038984723
103	0x3b5fe91d	0.0034166046
104	0xbcbdf9ad	-0.023190344
105	0xbd5f9d1e	-0.054593198
106	0x3d3d010f	0.046143588
107	0x3c589001	0.013217927
108	0x3c89a348	0.016801491
109	0xbced0a59	-0.028935598
110	0x3ac79edf	0.0015229842
111	0x3d51dffe	0.051239006
112	0xbd64d4f0	-0.055867136
113	0xbc8ad8d8	-0.016949102
114	0x3d15b7d9	0.036552284
115	0xbca4bf3c	-0.020110719
116	0xbd1c4359	-0.038150165
117	0x3d00ec6b	0.031475466
118	0xbcb5e4d7	-0.022203846
119	0x3d315f96	0.04330405
120	0xbd4acf55	-0.049514133
121	0x3d188c92	0.037243433
122	0xbc107e90	-0.008819237
123	0xbd4ad061	-0.04951513
124	0xbca83123	-0.020531243
125	0xbc0c6d21	-0.00857094
126	0xbca8ec5e	-0.020620521
127	0x3bd8f03f	0.0066204364

model.12.weight f4 [100, 128]
0	0xbe6bc2dd	-0.23023553
1	0x3e951aeb	0.291221
2	0xbe74e5f0	-0.23915839
3	0xbe968fbb	-0.29406533
4	0xbeb3f5d1	-0.3514848
5	0x3e927fca	0.2861312
6	0x3eb1e86f	0.34747645
7	0x3eacc3c9	0.33743122
8	0x3ebe408f	0.3715863
9	0x3e8e01ae	0.27735656
10	0x3e99ede1	0.300643
11	0x3e8bf8ca	0.27338248
12	0xbe4feff9	-0.20306386
13	0xbeaa1eb6	-0.33226556
14	0x3e9870b7	0.29773495
15	0xbe65f147	-0.22455321
16	0xbe577fc5	-0.21044834
17	0xbebf4f56	-0.37365216
18	0x3eb016c8	0.3439238
19	0x3e969ddd	0.29417315
20	0xbe612b01	-0.21989061
21	0xbea6a06c	-0.32544267
22	0x3ec08bac	0.3760656
23	0xbea9bd2a	-0.33152133
24	0x3e85fba5	0.26168552
25	0x3e852d48	0.2601111
26	0x3e5c5222	0.21515706
27	0xbeaed7aa	-0.34148914
28	0x3e6b1c48	0.22960007
29	0xbea76521	-0.32694343
30	0xbea35732	-0.31902462
31	0xbe5b9035	-0.2144173
32	0x3eb3f744	0.35149586
33	0x3e7653de	0.2405543
34	0x3e940a4b	0.28914103
35	0xbe8147cd	-0.25250092
36	0xbe5758d7	-0.21029983
37	0x3eb1ced1	0.347281
38	0xbe986917	-0.29767677
39	0x3eab32b9	0.33437136
40	0x3ea216b2	0.3165794
41	0xbea11a0c	-0.31465185
42	0xbeb9d749	-0.36297062
43	0xbeac77df	-0.33685204
44	0x3e7257c0	0.23666286
45	0x3eba2c0f	0.3636174
46	0x3e82d0f8	0.25550056
47	0xbea0fee5	-0.3144447
48	0xbeaaf026	-0.33386344
49	0x3ea21e31	0.3166366
50	0x3eacf68c	0.3378185
51	0xbe6fb65c	-0.23409408
52	0xbe887746	-0.26653498
53	0x3eb07dae	0.34470886
54	0xbe5669b5	-0.20938762
55	0x3e6cc54f	0.23122142
56	0xbeb8271d	-0.3596734
57	0xbe58e6f1	-0.21181847
58	0x3e92d658	0.28679156
59	0xbe94c701	-0.29058078
60	0xbead9fd1	-0.33910993
61	0x3e7d65fe	0.24745938
62	0x3eb4ab5c	0.35286987
63	0xbe6d7830	-0.23190379
64	0x3e99e84f	0.3006005
65	0x3ea89674	0.32927287
66	0x3ec1d34f	0.37856528
67	0xbe8bd0c4	-0.27307713
68	0x3eb0de81	0.34544757
69	0xbea161cb	-0.31519923
70	0xbe6649c7	-0.22489081
71	0xbea17f27	-0.31542322
72	0x3e8a9416	0.27066106
73	0x3ea1edbb	0.31626686
74	0x3e955773	0.2916828
75	0x3e863e7d	0.2621955
76	0x3e6f1f45	0.23351772
77	0x3e80cb2f	0.25155017
78	0x3eb041ea	0.34425288
79	0x3ea4a1ac	0.32154596
80	0xbe5d964e	-0.21639368
81	0xbe95a435	-0.29226843
82	0x3e6cb8ca	0.23117366
83	0x3e6a22a9	0.22864784
84	0xbe6b58f8	-0.22983158
85	0xbeb99ebb	-0.36253914
86	0x3eb5fb8e	0.35543483
87	0xbe84918a	-0.25892287
88	0x3e78b7dc	0.24288887
89	0x3ec2db32	0.38057858
90	0x3e93a2ec	0.28835237
91	0x3e6c0d57	0.23051964
92	0xbea90e24	-0.330186
93	0x3e8fdfb2	0.28100353
94	0x3e5c08f7	0.21487795
95	0x3ec1ba36	0.3783738
96	0x3eabf6f1	0.3358684
97	0x3eb3c04e	0.35107654
98	0x3ea7b4c8	0.32755113
99	0x3ea83fa2	0.32861048
100	0xbe958e2b	-0.29210028
101	0x3e63575d	0.22201295
102	0xbe9d4093	-0.3071333
103	0xbe96418c	-0.29346883
104	0xbe84e262	-0.25953966
105	0xbeaf8f2a	-0.34288913
106	0x3e6e7f31	0.23290707
107	0x3e7ed01a	0.24884072
108	0xbe935ee3	-0.2878333
109	0x3e768fa3	0.2407823
110	0x3e943d78	0.28953147
111	0x3eb3ce73	0.35118446
112	0xbe87eb43	-0.26546678
113	0xbea60fa6	-0.32433814
114	0x3e8127a5	0.2522556
115	0xbe7cfe78	-0.24706447
116	0xbe94ef51	-0.29088834
117	0x3ea0112c	0.312631
118	0x3e95b625	0.29240528
119	0x3e6caea6	0.23113498
120	0xbeaf9478	-0.3429296
121	0x3e8ba1df	0.27271935
122	0xbeabcc1d	-0.33554164
123	0xbebe3aea	-0.37154323
124	0xbea88f9f	-0.32922074
125	0x3e50816a	0.20361868
126	0xbe7986de	-0.24367854
127	0x3eba8a99	0.36433867
128	0xbe7c7561	-0.24654151
129	0x3eb0bcf7	0.3451917
130	0xbe840b30	-0.25789785
131	0xbea9c297	-0.33156273
132	0xbe89d5c8	-0.26920915
133	0x3eaf1139	0.34192827
134	0x3eb58e32	0.3546005
135	0x3e8ef791	0.27923253
136	0x3e80143d	0.2501544
137	0x3e837475	0.25674787
138	0x3eb9fb60	0.36324596
139	0x3ea2c4f6	0.31790894
140	0xbea20420	-0.31643772
141	0xbe6fb293	-0.23407964
142	0x3e911227	0.28334162
143	0xbeb1e10d	-0.34742013
144	0xbe98d3fa	-0.29849225
145	0xbec92dd0	-0.39292765
146	0x3ea44bbb	0.32089028
147	0x3e9993ec	0.29995668
148	0xbe7a731b	-0.24457972
149	0xbe83fecc	-0.25780332
150	0x3e6f4c73	0.23369007
151	0xbeb265f4	-0.3484341
152	0x3eb1bc15	0.34713808
153	0x3ec58a9c	0.38582313
154	0x3e987b54	0.29781592
155	0xbec73276	-0.38905686
156	0x3eb738ae	0.3578543
157	0xbeb85631	-0.3600326
158	0xbeac0772	-0.3359943
159	0xbe91bb83	-0.28463373
160	0x3ec84a8d	0.39119378
161	0x3ebceac9	0.36897877
162	0x3ead1e89	0.3381236
163	0xbeb3bacf	-0.3510346
164	0xbe7f01da	-0.2490305
165	0x3eb078b6	0.34467095
166	0xbea89357	-0.3292491
167	0x3eaca977	0.3372304
168	0x3ead66e8	0.33867574
169	0xbeb85e4f	-0.36009452
170	0xbe9cbf72	-0.3061481
171	0xbec64571	-0.38724855
172	0x3ea1b91c	0.3158654
173	0x3eb1fc40	0.34762764
174	0x3e86c751	0.2632394
175	0xbe823a56	-0.25435132
176	0xbe63dd6c	-0.22252434
177	0x3ea6f82d	0.32611218
178	0x3e9f802d	0.31152478
179	0xbeaf2ad5	-0.34212366
180	0xbe7e0ff8	-0.24810779
181	0x3e7d9dd6	0.24767241
182	0xbe976946	-0.29572505
183	0x3e8ab4e8	0.27091146
184	0xbe9b4a57	-0.30330154
185	0xbeb7d64d	-0.35905686
186	0x3eb3d772	0.3512531
187	0xbe9720cb	-0.29517207
188	0xbe9c1f12	-0.30492455
189	0x3e694a38	0.22782218
190	0x3e7fecc3	0.24992661
191	0xbe699269	-0.22809757
192	0x3e98ad29	0.2981961
193	0x3ec58f82	0.3858605
194	0x3eabbedf	0.3354406
195	0xbea88c07	-0.32919332
196	0x3e968915	0.2940146
197	0xbeb91cca	-0.36154777
198	0xbe874126	-0.26416892
199	0xbe8e15fa	-0.27751142
200	0x3e72b0e1	0.23700286
201	0x3ea0377d	0.31292334
202	0x3ec8bcfa	0.39206678
203	0x3eb78405	0.3584291
204	0x3ec2db62	0.38058
205	0x3ec34c8d	0.3814434
206	0x3e83ee21	0.25767615
207	0x3e8cc995	0.27497545
208	0xbebda046	-0.3703634
209	0xbe7df5aa	-0.24800745
210	0x3ebb4c69	0.36581734
211	0x3eb04494	0.3442732
212	0xbec56eb8	-0.38561034
213	0xbec7064e	-0.38871998
214	0x3ec625a6	0.38700598
215	0xbe7c9b9a	-0.24668732
216	0x3e799902	0.24374774
217	0x3eb100c7	0.34570906
218	0x3ec9c729	0.3940976
219	0x3eada1b5	0.33912435
220	0xbec7ce5b	-0.39024624
221	0x3e933f79	0.28759363
222	0x3e7eb70d	0.24874516
223	0x3eaeb95f	0.34125802
224	0x3e9cf145	0.30652824
225	0x3eb00e53	0.3438593
226	0x3e9fa4ea	0.31180507
227	0x3ec7c988	0.39020944
228	0xbec65ad4	-0.3874117
229	0x3ec7f206	0.39051837
230	0xbeabcfa1	-0.33556846
231	0xbea58cca	-0.32333976
232	0xbe9c7cd7	-0.30563995
233	0xbeab206e	-0.3342318
234	0x3e9d270f	0.30693862
235	0x3eb1fdc6	0.34763926
236	0xbea79d2d	-0.32737103
237	0x3ea425ec	0.32060182
238	0x3ea0fe86	0.31444186
239	0x3eabf86c	0.33587968
240	0xbe791141	-0.24322988
241	0xbeb05558	-0.34440112
242	0x3e83ec70	0.25766325
243	0xbe99d97f	-0.3004875
244	0xbebe715f	-0.3719587
245	0x3ea4b5ef	0.32170054
246	0x3ec17a85	0.37788787
247	0x3e679b3b	0.2261781
248	0xbea27e1a	-0.31736833
249	0x3e715e17	0.23571049
250	0xbec3524e	-0.3814873
251	0xbebf7681	-0.373951
252	0xbe87f8c1	-0.26556972
253	0x3e7ef0fe	0.24896619
254	0xbead2cd3	-0.3382326
255	0x3e7cec0e	0.24699423
